data/tfim1d/parameters/parameters_nH10_L10_B0.8.npz (npz, 1207 bytes, 3 tensors)

hidden_bias f4 [10]
1.70801 3.0888 -0.586658 -9.47043 5.38029 1.03864 2.99817 3.70655
2.77363 4.8307
00000000: 12a0 da3f e6ae 4540 382f 16bf e286 17c1
00000010: 562b ac40 28f2 843f 04e2 3f40 1d38 6d40
00000020: 2783 3140 1895 9a40

weights f4 [10, 10]
0.607531 1.19129 -0.507171 1.82388 -2.81864 -0.644433 -1.53099 0.649861
-1.93777 -0.766495 -0.234898 -0.229364 0.50966 1.16522 -2.19208 -1.54056
0.71224 -0.299037 -2.89611 -0.392979 0.5498 -1.90663 0.988076 2.26259
-0.861925 -2.33751 1.50239 -0.7665 -1.1568 -1.97218 0.716278 -1.57319
0.326723 1.89959 -0.945523 -1.68474 0.86493 -2.96144 0.965432 -1.68123
-0.0289027 -0.483832 -1.90254 2.03742 -0.380843 0.350782 0.301964 -3.70418
-0.718037 -0.318907 -0.220977 -1.7436 -3.90949 2.13778 0.672636 1.21489
-0.879494 -1.43899 -1.87233 -0.383672 -1.297 -2.10244 -1.67199 1.83446
-0.38608 1.6431 -1.35863 0.467489 -0.79052 -1.27883 -3.97672 -1.33497
0.244557 1.69682 -0.504792 0.928581 -1.33064 0.0718147 -0.153635 -1.85873
-2.37538 0.803668 -0.0353632 1.83472 -0.432923 -0.64911 -2.05691 -0.864715
0.192703 -1.02924 0.362612 1.69409 0.89403 2.30312 -1.42507 -1.03852
-3.88032 -0.176796 -0.447722 -1.42268
00000000: 2787 1b3f 317c 983f f5d5 01bf e674 e93f
00000010: 9964 34c0 90f9 24bf 7bf7 c3bf 4a5d 263f
00000020: d908 f8bf 0439 44bf 1a89 70be 65de 6abe
00000030: 1479 023f ee25 953f 0a4b 0cc0 1231 c5bf
00000040: 5c55 363f 611b 99be de59 39c0 8b34 c9be
00000050: b1bf 0c3f 740c f4bf 8cf2 7c3f 46ce 1040
00000060: 1ea7 5cbf c499 15c0 514e c03f 5839 44bf
00000070: 0612 94bf 6570 fcbf ff5d 373f 4a5e c9bf
00000080: 3d48 a73e c425 f33f cc0d 72bf 8fa5 d7bf
00000090: 0d6c 5d3f 3c88 3dc0 8d26 773f 8b32 d7bf
000000a0: 5bc5 ecbc d4b8 f7be 6e86 f3bf 1765 0240
000000b0: dbfd c2be b399 b33e 079b 9a3e 4911 6dc0
000000c0: 46d1 37bf c747 a3be cb47 62be 492e dfbf
000000d0: 1635 7ac0 63d1 0840 df31 2c3f 8481 9b3f
000000e0: 8526 61bf d330 b8bf 82a8 efbf a870 c4be
000000f0: 1904 a6bf 618e 06c0 c503 d6bf 96cf ea3f
00000100: 47ac c5be 1a51 d23f 96e7 adbf b85a ef3e
00000110: 855f 4abf b4b0 a3bf 9582 7ec0 4ce0 aabf
00000120: 266d 7a3e 6631 d93f 0c3a 01bf 7cb7 6d3f
00000130: 6952 aabf 9613 933d 7e52 1dbe ddea edbf
00000140: 3a06 18c0 30bd 4d3f 01d9 10bd 1bd8 ea3f
00000150: 15a8 ddbe 132c 26bf 6aa4 03c0 f65d 5dbf
00000160: ef53 453e 23be 83bf 48a8 b93e f1d7 d83f
00000170: 26df 643f 5166 1340 b268 b6bf 39ee 84bf
00000180: 2a57 78c0 030a 35be d13b e5be 611a b6bf

visible_bias f4 [10]
1.49 2.42 1.7 1.91 1.44 1.35 1.58 2.22
1.6 1.24
00000000: 52b8 be3f 48e1 1a40 9a99 d93f e17a f43f
00000010: ec51 b83f cdcc ac3f 713d ca3f 7b14 0e40
00000020: cdcc cc3f 52b8 9e3f
