data/tfim1d/parameters/parameters_nH10_L10_B1.4.npz (npz, 1205 bytes, 3 tensors)

hidden_bias f4 [10]
000000 f5 b9 04 40 6e 51 46 40 4d 15 14 40 4d db 93 c0
       2.07385 3.09872 2.3138 -4.62052
000010 ed 47 9a bd 8a 02 1d 40 1b 4c eb 3f 2b de 88 3f
       -0.0753325 2.45328 1.83826 1.06928
000020 d7 86 ce 3f e2 e4 fe 3f
       1.61349 1.99136

weights f4 [10, 10]
000000 b9 4f ce 3e 27 f6 2c 3f 62 a1 0e 3f 9b 3d 98 3f
       0.402952 0.675631 0.55715 1.18938
000010 50 70 19 c0 50 df 86 bf 74 44 76 bf fc 52 ab bf
       -2.39748 -1.05369 -0.961982 -1.33847
000020 1d 8f e9 bf 81 21 eb bd 76 50 29 3e 65 fb d0 bd
       -1.82468 -0.11481 0.165346 -0.102042
000030 04 ac d5 3d 98 e0 74 3e c9 1f ac bf 29 79 27 c0
       0.104332 0.239138 -1.34472 -2.61677
000040 c2 32 f6 be f3 aa 1e 3f c5 ac eb bf 1f 4a 78 bf
       -0.480856 0.619796 -1.84121 -0.969881
000050 70 94 14 3f 0b d2 e4 bf 62 9f 30 3e 85 44 66 3f
       0.58039 -1.78766 0.172483 0.899483
000060 77 f8 3f 3f 36 3c b9 bf db 69 27 3f 81 96 b6 3e
       0.749885 -1.44715 0.653959 0.356617
000070 80 60 8a bf d9 eb 11 c0 aa 2b a7 3e 94 4d 5b c0
       -1.08107 -2.28002 0.326505 -3.42661
000080 cd e1 9f 3d d3 f6 ab 3f 65 c7 63 3b 66 0b 12 bd
       0.0780674 1.34347 0.00347563 -0.0356554
000090 1d 20 30 3f 2c 65 89 bf f5 49 22 bf 56 f4 57 be
       0.68799 -1.0734 -0.633941 -0.210893
0000a0 dc d4 60 be 9f ab e9 bf 5f 24 d8 bf 42 cf a6 3f
       -0.219562 -1.82555 -1.68861 1.3032
0000b0 50 8e 72 be a7 91 0a bf 4d 86 07 3f 48 fa 54 be
       -0.236871 -0.541285 0.529393 -0.207986
0000c0 4f a1 c9 bd 4e d1 95 3f 47 14 e4 3c 59 88 a6 be
       -0.0984522 1.17045 0.0278417 -0.325259
0000d0 ea b2 7e c0 a6 9b a4 3f 3c 4d 16 3e ad d2 a7 3d
       -3.97967 1.286 0.146779 0.0819448
0000e0 50 e4 55 bf 8e 22 fb 3e 48 fa d4 be 6e 4e 9d 3e
       -0.835515 0.490498 -0.415972 0.307239
0000f0 b3 ea a3 bf 95 15 3e bd 07 7c be bf b8 e9 9b 3f
       -1.2806 -0.0464073 -1.48816 1.21807
000100 08 06 f8 be 99 0d 9a 3f cb 84 97 bf fc a7 77 3f
       -0.484421 1.20354 -1.18374 0.967407
000110 4a 42 2e bf 7a c4 3c bf 14 b3 44 c0 13 0e cd be
       -0.680699 -0.737373 -3.07343 -0.400498
000120 72 31 9e be d9 b5 d5 3e de 3c c9 bf 7b c0 18 3f
       -0.308971 0.417403 -1.57217 0.596687
000130 ee 7b 38 bf bb 5f 35 3e 50 fd f3 3e 57 cf d5 bf
       -0.720641 0.177123 0.476542 -1.67039
000140 4d 15 d4 bf dd eb e4 3d b2 2b 2d be a8 aa 28 3f
       -1.6569 0.111778 -0.169112 0.658854
000150 2f 89 a3 be 9c e1 66 bf 0f 7d 4f bf 66 66 ca bf
       -0.319406 -0.90188 -0.810502 -1.58125
000160 1d 77 92 3f c6 c4 3e bf e5 d4 a6 be 73 a1 6a 3f
       1.14426 -0.74519 -0.325843 0.916526
000170 89 ef ec 3e b0 72 d0 3f 7c 29 0c 3f cb 14 4f bf
       0.462765 1.6285 0.547508 -0.808911
000180 af 77 db bf ef 55 27 c0 d2 1a 53 be 79 ad d4 be
       -1.71459 -2.61462 -0.206157 -0.415386

visible_bias f4 [10]
000000 71 3d 6a 3f 14 ae 07 40 71 3d 9a 3f a4 70 9d 3f
       0.915 2.12 1.205 1.23
000010 1f 85 2b 3f a4 70 7d 3f 3d 0a 37 3f 48 e1 02 40
       0.67 0.99 0.715 2.045
000020 85 eb c1 3f 8f c2 35 3f
       1.515 0.71
