data/tfim1d/parameters/parameters_nH10_L10_B1.8.npz (npz, 1205 bytes, 3 tensors)

hidden_bias f4 [10]
0	0x3fdf3b10	1.74399
1	0x3fc409d5	1.53155
2	0x3f0a74d1	0.540845
3	0xc0924e12	-4.57203
4	0x3f54996b	0.830466
5	0xbf2a1640	-0.664402
6	0x3ff9f45e	1.95277
7	0x4001357e	2.01889
8	0x3fa88851	1.31666
9	0x403788b9	2.86772

weights f4 [10, 10]
0	0x3e647c31	0.22313
1	0x3eafb720	0.343194
2	0x3f1bc782	0.608513
3	0x3f927c07	1.14441
4	0xbff7ec57	-1.9369
5	0xbfe0e411	-1.75696
6	0xbf31faa9	-0.695231
7	0xbe6e874d	-0.232938
8	0xc0182c13	-2.37769
9	0x3e577ccc	0.210437
10	0x3f178aa0	0.591959
11	0xbef7034b	-0.482447
12	0x3e9e54b5	0.30924
13	0x3ea0e0a8	0.314214
14	0xbf5b5504	-0.856766
15	0xbfb25269	-1.39314
16	0xbf4cd142	-0.800068
17	0x3f2e6c4c	0.68134
18	0xbfce378b	-1.61107
19	0xbfafdd98	-1.37395
20	0x3f57dbe4	0.843199
21	0xbf5025d0	-0.813077
22	0x3ea3e22e	0.320085
23	0x3efe77d5	0.497008
24	0x3ea597f6	0.323425
25	0xbf2f5979	-0.684959
26	0x3e9af816	0.302674
27	0xbf188cb5	-0.595897
28	0xbec6f827	-0.388612
29	0xc04edb0e	-3.23212
30	0x3ecdce5b	0.401965
31	0xbff4ebee	-1.91345
32	0xbde24fec	-0.110504
33	0x3f1bf65e	0.609228
34	0xbfa93261	-1.32185
35	0xbd5b4500	-0.0535326
36	0x3f974acb	1.18197
37	0xbfbe7232	-1.48786
38	0x3e58ff76	0.211912
39	0xbf8efc26	-1.11707
40	0x3eb263d8	0.348418
41	0xc02e2f83	-2.72165
42	0xbf712ba1	-0.942072
43	0x3f0e2a0b	0.555329
44	0xbd36927e	-0.0445733
45	0x3e9e2ac3	0.30892
46	0xbdb00ff0	-0.0859679
47	0xbfa84966	-1.31474
48	0xbec1e519	-0.378701
49	0x3eabd1ee	0.335586
50	0x3e828241	0.2549
51	0xbf585815	-0.845094
52	0xc03f3b10	-2.98798
53	0x3f15dfec	0.585448
54	0x3c16b38b	0.00919808
55	0x3f714d51	0.942586
56	0xbf8a6320	-1.08115
57	0xbf3832ba	-0.719524
58	0xbf7e8512	-0.994218
59	0xbd9629e6	-0.0733221
60	0xbfa99408	-1.32483
61	0x3e8f81a6	0.280286
62	0xbfd01f21	-1.62595
63	0x3f08c6d6	0.534284
64	0xbf2b2ef1	-0.668685
65	0x3fd24b88	1.64293
66	0xbec609dd	-0.386794
67	0x3c8607b7	0.0163611
68	0xbf8f07f2	-1.11743
69	0xbf3a0568	-0.726645
70	0xc033e76d	-2.811
71	0xbe97c654	-0.296435
72	0xbe7095f2	-0.234947
73	0x3ee7c632	0.452684
74	0xbf510fd8	-0.816648
75	0x3f0c6b27	0.54851
76	0xbef39da1	-0.475812
77	0x3ed3a8e7	0.413398
78	0xbe92c647	-0.286669
79	0xbf8b00bd	-1.08596
80	0xbfdb18a8	-1.71169
81	0xbe192fb2	-0.149596
82	0x3edaf72b	0.427667
83	0x3ca75f55	0.0204312
84	0xbf0a05bc	-0.53915
85	0xbf114a3c	-0.567539
86	0xbfd59a41	-1.66877
87	0xbf431ed1	-0.762189
88	0x3f59b61c	0.850435
89	0xbf01a09d	-0.506357
90	0xbf0515ad	-0.519862
91	0x3f8750b1	1.05715
92	0x3f405133	0.751239
93	0x3f3cf7db	0.738157
94	0xbf46b8d8	-0.776258
95	0xbf837176	-1.0269
96	0xbff1bdf9	-1.88861
97	0xc0101d7e	-2.2518
98	0xbea2bd1b	-0.317849
99	0x3e1d82fd	0.15382

visible_bias f4 [10]
0	0x3f4e147b	0.805
1	0x3f91eb85	1.14
2	0x3f8a3d71	1.08
3	0x3f7d70a4	0.99
4	0x3f966666	1.175
5	0x3fd8f5c3	1.695
6	0x3fb33333	1.4
7	0x3ff28f5c	1.895
8	0x3fe1eb85	1.765
9	0x3f9b851f	1.215
