data/tfim1d/parameters/parameters_nH10_L10_B2.0.npz (npz, 1205 bytes, 3 tensors)

hidden_bias f4 [10]
00000000: 13b8 75be 514e 8c3f baf8 0bbe ea04 83c0
00000010: fd18 ae3d 2fcf b43d ea3e d03f ee42 a73f
00000020: 1b81 b03f be87 2340
-0.23996 1.09614 -0.136691 -4.09435 0.0850086 0.0882858 1.62692 1.30673
1.37894 2.55516

weights f4 [10, 10]
00000000: 7460 b13e 9885 6e3f 5f9a fa3e 86c9 8c3f
00000010: aebb d5bf 1d3a d5be fc1d aabf 7710 93be
00000020: 6e69 f9bf 6612 253e 823a 453e 8e1f babe
00000030: 1498 a63e b2d7 5f3f ac73 acbf 567d b6bf
00000040: b610 20bf 446e ba3f 3598 b6bf 9c33 8ebf
00000050: 0873 373f 4549 2cbf b8ea e23e 0b44 233f
00000060: c079 093f 49d7 c0bf 82e7 5a3f 1e31 8f3d
00000070: 751f 84bf 9ab6 09c0 7f17 9e3e 670f b8bf
00000080: 959d a63e 5c1e 2f3f 9b1d b9be 8e21 74bf
00000090: babd a03f d690 00c0 cedd 96be d506 77bf
000000a0: 9850 413e 2f6e 07c0 2d97 b5be 9f1f 923f
000000b0: 8d6a b7bd f35a e1be 475e 51bd 419f 84bf
000000c0: 4ab6 4abe 31ec 5c3f efc7 2dbe d4b7 84bf
000000d0: adfa 36c0 0f62 ef3f 45a1 e53e 5eba 153f
000000e0: 7d3c 043e cbe7 46bd 8ba5 f8be c537 9c3e
000000f0: 23f8 fbbf 2ba4 ecbe 535c b1bf 2cbc 133f
00000100: 7aa1 c5bd ef20 823f 618a 52be 9e60 1fbe
00000110: eb8b dcbe bfd2 35bf 99bb 38c0 26e5 06bf
00000120: 450d 363e 554f 023f 4eb8 1fbf deff 773f
00000130: f8a7 40bf 2fde 2fbe a722 113f d74c b6bf
00000140: b4aa 39bf 9c34 9d3e 581e 243c 3f37 303f
00000150: a182 1bbf 58e7 a0be c45f d7bf d029 5cbf
00000160: e3df d33f e3aa 8abf 444c c13e c555 b13f
00000170: f6d1 913e d4d4 ae3f ff5c f4bd 058a d8be
00000180: 6631 fdbf c538 c7bf b645 3ebd 8659 d8be
0.346439 0.931726 0.489459 1.0999 -1.66979 -0.416459 -1.32904 -0.287235
-1.94853 0.161203 0.192606 -0.363522 0.325379 0.874385 -1.34728 -1.4257
-0.625255 1.45649 -1.42652 -1.11095 0.716599 -0.672993 0.443197 0.637757
0.537014 -1.50657 0.855095 0.0699179 -1.03221 -2.15177 0.308773 -1.43797
0.325421 0.684057 -0.361554 -0.953637 1.25579 -2.00884 -0.294661 -0.964948
0.188784 -2.1161 -0.354669 1.14159 -0.0895587 -0.440147 -0.0511153 -1.03611
-0.197961 0.862979 -0.169708 -1.03686 -2.85905 1.87018 0.448496 0.584875
0.129137 -0.0485609 -0.485638 0.305113 -1.96851 -0.46219 -1.38563 0.57709
-0.0964994 1.01663 -0.205606 -0.155642 -0.430755 -0.710247 -2.88645 -0.526934
0.177785 0.509023 -0.623906 0.968748 -0.752563 -0.171746 0.566935 -1.42422
-0.725261 0.307042 0.010017 0.688343 -0.607462 -0.314265 -1.68261 -0.860013
1.65527 -1.08334 0.377535 1.38543 0.284805 1.36587 -0.119318 -0.422928
-1.97807 -1.55642 -0.0464532 -0.422558

visible_bias f4 [10]
00000000: 295c 0f3f 3333 533f 48e1 3a3f e17a 743f
00000010: 0ad7 a33e 0ad7 a3bd 48e1 7a3f ec51 583f
00000020: 14ae 073f 713d 0a3e
0.56 0.825 0.73 0.955 0.32 -0.08 0.98 0.845
0.53 0.135
