data/tfim1d/parameters/parameters_nH10_L10_B0.4.npz (npz, 1205 bytes, 3 tensors)

hidden_bias f4 [10]
2.34655 3.95952 1.39308 -9.3632 5.62346 3.51032 6.12971 4.4518
5.60425 5.67001
00000000: e02d 1640 c768 7d40 7250 b23f abcf 15c1
00000010: 62f3 b340 15a9 6040 9626 c440 2575 8e40
00000020: 0456 b340 b970 b540

weights f4 [10, 10]
-0.0914354 0.367066 0.024843 2.59562 -1.89971 -0.965954 -2.22504 -0.463684
-1.10178 -0.637016 0.122258 -0.654951 0.711469 2.50726 -1.43037 -1.54986
-0.956978 0.554822 -1.66503 -1.89591 -0.597826 -0.413056 -0.694872 2.03345
-0.731239 -2.72093 -0.760323 -0.109347 -1.16497 -1.15452 -0.0724241 -2.25716
0.19538 2.64209 -1.18028 -0.0319904 0.637421 -2.32171 -1.06979 -1.34186
0.777405 -2.3417 -1.97498 1.9045 -0.746293 -1.5412 0.683096 -2.2352
-1.10794 -0.000342662 -0.554545 -1.8597 -1.94768 2.56414 -0.100083 0.974625
-1.08751 -1.71665 -0.965874 -0.711614 -1.72131 -0.556413 -0.631329 1.81126
-1.08611 -0.597612 -1.2498 -0.0768123 -1.40584 -1.02633 -2.7481 -1.76928
0.41422 1.92675 -0.766324 0.931197 -1.5882 -1.14523 0.245323 -1.82004
-1.69251 0.632229 -1.11596 1.93005 -1.64367 -0.643509 -1.58854 -0.876683
-0.212152 -1.08113 -0.260198 -0.358526 -0.606034 2.4034 -0.158002 -1.57839
-2.22181 -0.640167 -1.09071 -0.835088
00000000: 7c42 bbbd 13f0 bb3e 8c83 cb3c a31e 2640
00000010: b329 f3bf c348 77bf 0e67 0ec0 fd67 edbe
00000020: 2107 8dbf 7b13 23bf 6762 fa3d deaa 27bf
00000030: d522 363f f376 2040 5d16 b7bf d061 c6bf
00000040: 83fc 74bf d108 0e3f b41f d5bf 2ead f2bf
00000050: 200b 19bf 137c d3be 22e3 31bf 0b24 0240
00000060: 7b32 3bbf b823 2ec0 87a4 42bf 52f1 dfbd
00000070: bd1d 95bf 50c7 93bf 1653 94bd 4f75 10c0
00000080: b211 483e 0118 2940 6a13 97bf 5e08 03bd
00000090: 062e 233f e696 14c0 e1ee 88bf 12c2 abbf
000000a0: 0404 473f 6ade 15c0 25cc fcbf a8c6 f33f
000000b0: 0f0d 3fbf 0b46 c5bf 61df 2e3f 840d 0fc0
000000c0: fad0 8dbf 51a7 b3b9 a9f6 0dbf a60a eebf
000000d0: 944d f9bf df1a 2440 51f8 ccbd 0681 793f
000000e0: 8733 8bbf 30bb dbbf 8543 77bf 562c 36bf
000000f0: e353 dcbf 1571 0ebf c79e 21bf 5ed7 e73f
00000100: a705 8bbf 1afd 18bf 72f9 9fbf c44f 9dbd
00000110: 91f2 b3bf c85e 83bf dfe0 2fc0 c477 e2bf
00000120: a514 d43e be9f f63f cf2d 44bf ed62 6e3f
00000130: 234a cbbf e696 92bf f435 7b3e 12f7 e8bf
00000140: 2ba4 d8bf c2d9 213f c7d7 8ebf e10b f73f
00000150: c763 d2bf 01bd 24bf 4755 cbbf 4c6e 60bf
00000160: 603e 59be 7862 8abf ac38 85be b890 b7be
00000170: 0b25 1bbf 4ed1 1940 47cb 21be af08 cabf
00000180: 2332 0ec0 fce1 23bf 639c 8bbf 54c8 55bf

visible_bias f4 [10]
2.41 2.25 2.88 2.37 2.79 2.18 3.09 2.52
3.02 2.51
00000000: 713d 1a40 0000 1040 ec51 3840 14ae 1740
00000010: 5c8f 3240 1f85 0b40 8fc2 4540 ae47 2140
00000020: ae47 4140 d7a3 2040
