data/tfim1d/parameters/parameters_nH10_L10_B1.0.npz (npz, 1203 bytes, 3 tensors)

hidden_bias f4 [10]
0	0x40384d2b	2.87971
1	0x401538c5	2.33159
2	0x3ff4ea4b	1.9134
3	0xc0e521ff	-7.1604
4	0x4075d417	3.84107
5	0x40110870	2.26614
6	0x407e0cf2	3.96954
7	0x3fdc9375	1.72325
8	0x40281f21	2.6269
9	0x407af4f1	3.9212

weights f4 [10, 10]
0	0x3e8bd48d	0.273106
1	0x3f826f93	1.01903
2	0x3e3865d8	0.180076
3	0x3f9088a4	1.12917
4	0xc0157881	-2.33548
5	0x3d882129	0.0664695
6	0xc01b104d	-2.42287
7	0x3ee31013	0.443482
8	0xc0174b9d	-2.36399
9	0xbedfea3e	-0.437334
10	0x3e2fb6dd	0.171596
11	0x3dadf839	0.0849461
12	0xbed0a30e	-0.407494
13	0x3f56f987	0.839745
14	0xc01a5682	-2.41153
15	0xbfeecb53	-1.86558
16	0xbd91f19a	-0.0712616
17	0x3fc26df0	1.51898
18	0xbfe3edfa	-1.7807
19	0xbf8e4f22	-1.11179
20	0xbc4adff8	-0.0123825
21	0xbfcdfa98	-1.60921
22	0x3f019ad8	0.506269
23	0x3fa942c4	1.32235
24	0xbf2273d6	-0.63458
25	0xc038ff43	-2.89058
26	0x3f8ec3ca	1.11535
27	0xbda76b9a	-0.0817482
28	0xbf822824	-1.01685
29	0xbfd6e297	-1.67879
30	0x3f1bba88	0.608315
31	0xc021187e	-2.51712
32	0x3fa401a3	1.2813
33	0x4004dff8	2.07617
34	0xbeb5e226	-0.355241
35	0xbf63d684	-0.889992
36	0x3e900ef1	0.281364
37	0xbff74928	-1.93192
38	0xbf986f69	-1.1909
39	0xbf0c4ea5	-0.548075
40	0x3ee5bc23	0.448701
41	0xbfbff23d	-1.49958
42	0xbf8760bf	-1.05764
43	0x3ff753a4	1.93224
44	0xbfa3f584	-1.28093
45	0x3eddea68	0.433429
46	0x3edcd185	0.431286
47	0xc00c2fd7	-2.19042
48	0xbf237dfa	-0.638641
49	0x3d9e46f8	0.0772838
50	0xbe5cdd94	-0.215689
51	0xbfa6469d	-1.29903
52	0xc066d4aa	-3.60673
53	0x400cc6e7	2.19964
54	0x3f288a48	0.65836
55	0x3ead7ffa	0.338867
56	0xbf06efd4	-0.527097
57	0xbf239629	-0.63901
58	0xbf636641	-0.888279
59	0x3de640a7	0.112428
60	0xbfeeb314	-1.86484
61	0xbf3d5d4f	-0.739705
62	0xc0019946	-2.02498
63	0x3fcc16f0	1.59445
64	0x3e852652	0.260058
65	0x3ebf763e	0.373949
66	0xbe9cf67b	-0.306568
67	0x3d614545	0.0549977
68	0xbe639431	-0.222245
69	0xbf0d1202	-0.551056
70	0xc097ba5e	-4.7415
71	0xbf1ba637	-0.608005
72	0xbe5a93af	-0.213454
73	0x3fa1aaa4	1.26302
74	0xbf885faf	-1.06542
75	0x3f4a26b3	0.789653
76	0xbee222d5	-0.441672
77	0xbe8efda8	-0.279279
78	0x3f25987c	0.646858
79	0xbf943276	-1.15779
80	0xbfc23001	-1.51709
81	0x3f2c7464	0.673651
82	0x3d158355	0.0365022
83	0x3fb5b867	1.41969
84	0xbf61434a	-0.879933
85	0xbe2255b0	-0.15853
86	0xbfd6a2b1	-1.67684
87	0xbf347486	-0.704903
88	0x3fab87be	1.34008
89	0xbfd984a1	-1.69936
90	0x3e5e8640	0.217309
91	0x3f69cbde	0.913267
92	0x3df50b0f	0.11965
93	0x3f7a3fab	0.977534
94	0xbd32f91c	-0.0436946
95	0xbfa33333	-1.275
96	0xc0906430	-4.51223
97	0xbf38e54f	-0.722249
98	0x3ed08db0	0.407331
99	0xbfb009d5	-1.3753

visible_bias f4 [10]
0	0x400947ae	2.145
1	0x4014cccd	2.325
2	0x400428f6	2.065
3	0x3fa8f5c3	1.32
4	0x3f9eb852	1.24
5	0x3fa8f5c3	1.32
6	0x3fb8f5c3	1.445
7	0x4020f5c3	2.515
8	0x3fb28f5c	1.395
9	0x401c7ae1	2.445
