data/tfim1d/parameters/parameters_nH10_L10_B1.6.npz (npz, 1205 bytes, 3 tensors)

hidden_bias f4 [10]
1.26939 1.84416 0.861467 -5.18622 1.27298 1.66668 1.43698 1.15238
1.61765 1.93242
00000000: 5f7b a23f 6f0d ec3f 1a89 5c3f 84f5 a5c0
00000010: 02f1 a23f c555 d53f f6ee b73f 3081 933f
00000020: 280f cf3f 8a59 f73f

weights f4 [10, 10]
0.401547 0.708808 0.57414 1.11989 -1.32722 -1.24174 -1.16543 0.254901
-2.17593 0.273309 0.082084 -9.08259e-05 0.301664 0.523451 -1.12261 -1.83354
-0.149896 0.871871 -1.16549 -1.11724 0.416675 -0.987004 0.0875869 0.30687
0.0710912 -2.09036 0.631066 -0.418647 -0.358611 -2.41754 0.348827 -2.47956
0.68542 0.382827 -0.0436471 -0.829169 0.441659 -1.52386 -0.565545 -0.875487
0.339602 -2.40987 -0.72529 1.21655 -1.14067 0.226049 0.322908 -0.78096
-0.299167 0.44631 0.268613 -1.11211 -3.75078 1.17966 -0.826391 0.582311
-0.0989461 -0.236499 -0.604175 -0.112715 -1.49907 -0.140855 -1.59006 0.159778
0.300086 1.22585 -0.444909 0.0479353 -1.36236 -1.4022 -3.70795 0.309172
-0.0490326 1.02661 -1.07352 0.447181 -0.0933431 -0.896085 0.011908 -1.10326
-1.12848 0.512177 -0.0219292 0.642334 -0.925328 -0.481522 -1.56625 -1.36298
0.958446 -0.224224 0.18441 0.560281 0.383103 1.01288 -0.499212 -0.577404
-3.10298 -1.62544 -0.694214 0.103818
00000000: 9297 cd3e 7174 353f d7fa 123f 8e58 8f3f
00000010: 58e2 a9bf 56f1 9ebf cf2c 95bf 6282 823e
00000020: 7042 0bc0 28ef 8b3e a81b a83d c979 beb8
00000030: b473 9a3e e200 063f afb1 8fbf 70b1 eabf
00000040: 567e 19be f032 5f3f c72e 95bf b801 8fbf
00000050: 6d56 d53e 4bac 7cbf c360 b33d 111e 9d3e
00000060: 4398 913d 75c8 05c0 8b8d 213f e658 d6be
00000070: dc9b b7be fab8 1ac0 7499 b23e 1cb1 1ec0
00000080: af77 2f3f e701 c43e 4dc7 32bd 6b44 54bf
00000090: 2121 e23e d80d c3bf 8fc7 10bf eb1f 60bf
000000a0: 50e0 ad3e 4f3b 1ac0 9bac 39bf e9b7 9b3f
000000b0: 7901 92bf 6479 673e 3354 a53e ffec 47bf
000000c0: 6b2c 99be bf82 e43e a587 893e 9f59 8ebf
000000d0: c80c 70c0 19ff 963f 5c8e 53bf 5512 153f
000000e0: 41a4 cabd cb2c 72be 36ab 1abf 1fd7 e6bd
000000f0: 87e1 bfbf 4b3c 10be 1687 cbbf d89c 233e
00000100: dfa4 993e a7e8 9c3f 1dcb e3be ce57 443d
00000110: d061 aebf 4a7b b3bf 0e4f 6dc0 cb4b 9e3e
00000120: 68d6 48bd f567 833f 1a69 89bf e8f4 e43e
00000130: ab2a bfbd d465 65bf c619 433c a037 8dbf
00000140: 0872 90bf 081e 033f dea4 b3bc 0070 243f
00000150: 4ce2 6cbf 0d8a f6be e17a c8bf 2176 aebf
00000160: b85c 753f fa9a 65be fad5 3c3e 936e 0f3f
00000170: 1426 c43e 0da6 813f b798 ffbe c0d0 13bf
00000180: 3997 46c0 6b0e d0bf 02b8 31bf 889e d43d

visible_bias f4 [10]
0.62 1.115 1.645 1.48 0.855 1.305 1.5 1.49
1.15 0.98
00000000: 52b8 1e3f 52b8 8e3f 5c8f d23f a470 bd3f
00000010: 48e1 5a3f 3d0a a73f 0000 c03f 52b8 be3f
00000020: 3333 933f 48e1 7a3f
