data/tfim1d/parameters/parameters_nH10_L10_B0.6.npz (npz, 1203 bytes, 3 tensors)

hidden_bias f4 [10]
00000000: 65aa f43f 9548 6240 7670 303f be3c 14c1
00000010: 00e3 9c40 1040 f63f 70b6 9740 9fe5 7140
00000020: d4f1 8e40 da55 a340
1.91145 3.53568 0.689216 -9.26483 4.90271 1.92383 4.74102 3.77964
4.46702 5.10423

weights f4 [10, 10]
00000000: 567e a13e 8465 343f 98a5 153f 27f7 f73f
00000010: 8a59 dbbf 2b30 b4bf 34d7 4bc0 7adb 713d
00000020: e86a c7bf bda8 8dbe b799 1a3e d028 c5be
00000030: 304c ae3f 79cc 1240 fa9b e0bf 6a6a f9bf
00000040: 8048 c3bf 2ae3 933f 21cd d8bf 9621 debf
00000050: 7e57 743e 3541 acbf 8604 403f be30 c13f
00000060: 4da1 77bf 6b65 fabf 9295 2b3f ada3 8abf
00000070: e5b8 83bf a4a5 eebf 069d 403f 145c 04c0
00000080: 1a50 3b3f 85b6 0440 a7cb 9abf e17d 21bf
00000090: 27c2 923f 085a 2fc0 e23a 22bf 23a1 cdbf
000000a0: e6ce 943e 95f1 dfbf 5f46 f9bf 9f1f 0040
000000b0: 1958 5fbf f545 673d 0438 bd3e 49f4 e2bf
000000c0: 1096 6dbf 50fd f3be 3df1 00bf 68e8 9fbf
000000d0: f354 39c0 e73a 0f40 7f14 25be 8178 8d3f
000000e0: ad34 81bf 23f6 31bf fd4d 14c0 6284 50be
000000f0: 2f69 e4bf b5f9 4bbf 2d26 debf 554d d43f
00000100: d49d 43bf 0611 213f ad2f 32bf 2e3d 9a3e
00000110: b8cc f1bf 6267 8abf 3142 38c0 dd24 b2bf
00000120: 8461 20be 5305 ff3f b954 79bf 48c4 943f
00000130: cf31 bcbf d07d 29bf 5c3b 393f e353 e4bf
00000140: 0d54 dabf 0ce5 0c3f 4209 cbbf a9d9 bf3f
00000150: a758 71bf 44a3 b3bf adfa c8bf e561 b5bf
00000160: ec34 823f 6fd3 87bf f629 8fbe 3ae8 aa3e
00000170: 193b 49bf f5f3 1040 ec87 e8be f8df a6bf
00000180: 3e79 1cc0 1091 7abf 2c9b 093e 280f 2bbf
0.315417 0.704674 0.584558 1.93723 -1.71367 -1.40772 -3.18501 0.0590472
-1.55795 -0.276678 0.150977 -0.385077 1.3617 2.29373 -1.75476 -1.94856
-1.52565 1.15537 -1.69376 -1.7354 0.238615 -1.34574 0.750069 1.5093
-0.967305 -1.95622 0.670251 -1.08312 -1.02908 -1.86443 0.752396 -2.06812
0.731691 2.07364 -1.20934 -0.630827 1.14655 -2.73987 -0.633711 -1.60648
0.290641 -1.74956 -1.94746 2.00193 -0.872438 0.0564632 0.369568 -1.77308
-0.928071 -0.476542 -0.503681 -1.24928 -2.89581 2.23797 -0.161211 1.10524
-1.00942 -0.695162 -2.31726 -0.20363 -1.78446 -0.796779 -1.73554 1.65861
-0.764127 0.629166 -0.69604 0.301248 -1.88906 -1.08128 -2.87904 -1.39175
-0.156622 1.99235 -0.973949 1.16224 -1.47027 -0.662076 0.723562 -1.78381
-1.70569 0.55037 -1.58622 1.49883 -0.942759 -1.40342 -1.57015 -1.41705
1.01724 -1.06114 -0.279617 0.333803 -0.786058 2.26489 -0.454162 -1.30371
-2.4449 -0.978776 0.134381 -0.6682

visible_bias f4 [10]
00000000: 6666 0640 6666 f63f 3333 1b40 0000 0840
00000010: d7a3 0040 6666 f63f 713d 1a40 b81e 1540
00000020: f628 2440 3d0a d73f
2.1 1.925 2.425 2.125 2.01 1.925 2.41 2.33
2.565 1.68
