data/tfim1d/parameters/parameters_nH10_L10_B0.2.npz (npz, 1204 bytes, 3 tensors)

hidden_bias f4 [10]
3.73132 5.87286 4.40176 -10.2561 6.61069 5.60517 7.51973 6.10455
6.68684 6.83154
00000000: f2cd 6e40 78ee bb40 38db 8c40 fc18 24c1
00000010: c68a d340 8d5d b340 a1a1 f040 7958 c340
00000020: 98fa d540 fa9b da40

weights f4 [10, 10]
-0.182665 -0.28701 -0.438292 3.61368 -2.08979 -1.25963 -1.77714 -0.591291
-1.38674 -0.75723 0.31725 -1.48282 0.105546 4.07761 -1.59921 -2.07031
-1.03741 0.242647 -2.17045 -2.12192 -0.85102 -0.438407 -0.766139 3.0748
-1.20718 -2.60592 -1.07479 -0.132275 -1.52971 -1.37486 0.378567 -2.13826
-0.366869 3.70615 -1.3201 -0.407526 0.511022 -2.13076 -1.3511 -1.60295
0.599019 -2.24834 -2.13225 3.15974 -1.01414 -1.25238 0.340851 -2.11967
-1.56418 -0.03064 0.605116 -2.28908 -2.51113 3.99536 -0.144587 0.239872
-0.77992 -2.43996 -1.17172 -0.324625 -0.320482 -0.46647 -1.03494 2.82298
-1.52269 -1.53994 -1.58496 0.020843 -2.06204 -0.862873 -4.96596 -0.967542
0.609324 3.11435 -1.03906 0.383335 -2.4593 -0.923335 0.508717 -1.98987
-4.91528 0.657422 -1.08307 2.91913 -1.42712 -0.77706 -2.14152 -1.3113
0.304093 -1.18827 0.514679 -0.431405 -0.19894 3.37029 -0.4239 -2.07273
-1.61365 -0.574295 -1.67252 -1.31032
00000000: 890c 3bbe faf2 92be cf67 e0be 8846 6740
00000010: 1fbf 05c0 8e3b a1bf 5379 e3bf d95e 17bf
00000020: b280 b1bf d3d9 41bf 986e a23e 0ccd bdbf
00000030: 8028 d83d c87b 8240 eab2 ccbf f67f 04c0
00000040: dac9 84bf 7578 783e a7e8 0ac0 8acd 07c0
00000050: 72dc 59bf e276 e0be af21 44bf 86c9 4440
00000060: e084 9abf 65c7 26c0 b892 89bf 1973 07be
00000070: 8acd c3bf 6afb afbf 89d3 c13e 40d9 08c0
00000080: 41d6 bbbe 9031 6d40 09f9 a8bf 3fa7 d0be
00000090: 56d2 023f 5f5e 08c0 d8f0 acbf 772d cdbf
000000a0: 4f59 193f cde4 0fc0 c976 08c0 2e39 4a40
000000b0: 57cf 81bf fd4d a0bf 0684 ae3e aca8 07c0
000000c0: 0d37 c8bf bd00 fbbc e2e8 1a3f 4980 12c0
000000d0: 5bb6 20c0 fab3 7f40 9d0e 14be 01a1 753e
000000e0: d6a8 47bf 4e28 1cc0 ecfa 95bf 3f35 a6be
000000f0: 3716 a4be 28d5 eebe ea78 84bf b4ab 3440
00000100: 82e7 c2bf c11c c5bf f8df cabf f0be aa3c
00000110: 77f8 03c0 3fe5 5cbf 25e9 9ec0 d5b0 77bf
00000120: a8fc 1b3f 8351 4740 ebff 84bf 7c44 c43e
00000130: 2c65 1dc0 af5f 6cbf 473b 023f 0fb4 febf
00000140: f949 9dc0 cf4c 283f 0aa2 8abf 07d3 3a40
00000150: deab b6bf 67ed 46bf aa0e 09c0 aed8 a7bf
00000160: 14b2 9b3e 3b19 98bf 01c2 033f 1ee1 dcbe
00000170: edb6 4bbe d5b2 5740 6c09 d9be 9ca7 04c0
00000180: 158c cebf ff04 13bf 2315 d6bf 91b8 a7bf

visible_bias f4 [10]
2.38 2.99 2.92 2.22 3.01 2.75 3.26 3.69
3.99 2.56
00000000: ec51 1840 295c 3f40 48e1 3a40 7b14 0e40
00000010: d7a3 4040 0000 3040 d7a3 5040 f628 6c40
00000020: 295c 7f40 0ad7 2340
