data/ising2d/parameters/parameters_nH4_L4_T1.254.npz (npz, 895 bytes, 3 tensors)

hidden_bias f4 [4]
00000000: 3da1 aa41 3911 ad41 8de2 b241 accd 43c1
21.32873 21.63341 22.36062 -12.237713

weights f4 [16, 4]
00000000: 131c 3fc0 f7dd bfbf 27c7 10c0 c2ee ac40
00000010: 1d9d aabf ace9 34c0 3e03 45c0 96ed 9e40
00000020: 65da b0bf 9aaf d7bf 496b 57c0 e57c bb40
00000030: b70d 02c0 2bd0 e3bf ffe7 3ac0 f1fe af40
00000040: bc70 1ac0 b452 68c0 a66b b2bf 468c 9c40
00000050: ff98 0fc0 5628 b4bf e951 58c0 5f2a a440
00000060: 6d46 babf 3886 09c0 0d7e 46c0 ab04 b540
00000070: c5fb 4fc0 7297 1cc0 85d9 d2bf 9c45 9b40
00000080: 37db e0bf b264 64c0 c85d 00c0 8de7 9c40
00000090: 1c55 4dc0 1cd7 67bf 7586 11c0 6430 b640
000000a0: 81c1 2dc0 c178 09c0 f638 33c0 00a6 9640
000000b0: 2b99 f2bf 77e1 03c0 f304 66c0 c7d9 9940
000000c0: bd91 12c0 1410 d6bf 6c55 42c0 c8d6 a740
000000d0: f535 e2bf 8f8d 53c0 dab6 c4bf 8669 b340
000000e0: f1ff 25c0 0ef6 f5bf 8c06 fabf 1c0d bc40
000000f0: 9b21 41c0 6be5 02c0 af26 31c0 298f 9540
-2.9860885 -1.4989613 -2.2621553 5.4041452 -1.3329197 -2.8267622 -3.078323 4.966502
-1.3816649 -1.6850464 -3.3659232 5.858996 -2.032087 -1.7797903 -2.92041 5.499871
-2.4131308 -3.6300478 -1.3939102 4.892123 -2.2437131 -1.407481 -3.3799994 5.1301723
-1.4552742 -2.148817 -3.1014435 5.65682 -3.2497418 -2.4467435 -1.6472632 4.852247
-1.7566899 -3.568646 -2.005724 4.9032655 -3.2083197 -0.90562606 -2.2738316 5.693407
-2.7149355 -2.1479952 -2.8003516 4.7077637 -1.8952993 -2.0606363 -3.594052 4.807834
-2.2901452 -1.6723657 -3.0364637 5.2449684 -1.7672716 -3.305515 -1.5368302 5.6066313
-2.5937464 -1.9215715 -1.9533248 5.8766003 -3.017676 -2.0452526 -2.767986 4.6737256

visible_bias f4 [16]
00000000: 6713 2e3f 8791 893f bc05 233e 2dad cb3e
00000010: 273e 843f b4a7 513f f765 d93e 2fe0 893f
00000020: 2d8d 833f c3e8 993e 2f34 b13f c73e a63f
00000030: 4c21 3b3f dcef b83e 0440 a43d 226b bc3f
0.67998356 1.0747536 0.15920156 0.3978056 1.0331467 0.8189652 0.42460606 1.077154
1.0277458 0.30060396 1.384405 1.2987908 0.7309768 0.36120498 0.080200225 1.4720194
