data/ising2d/parameters/parameters_nH4_L4_T2.524.npz (npz, 895 bytes, 3 tensors)

hidden_bias f4 [4]
0	0x41614380	14.0789795
1	0x4195c95f	18.723326
2	0x41513452	13.0752735
3	0xc073169c	-3.798255

weights f4 [16, 4]
0	0xbeecede1	-0.46275237
1	0xc011d6e1	-2.2787402
2	0xbfdbcae5	-1.7171293
3	0x3fd8d7b7	1.6940831
4	0xbe8441d0	-0.2583146
5	0xbfbfb173	-1.4976028
6	0xc0188e00	-2.383667
7	0x401a8965	2.414636
8	0xbf54d32a	-0.8313471
9	0xbf561702	-0.8362886
10	0xc01a0ea1	-2.4071429
11	0x401fa1aa	2.4942422
12	0xbf9a74bf	-1.2066878
13	0xbfa0464c	-1.2521453
14	0xbfe14411	-1.7598897
15	0x3fe6631b	1.7998995
16	0x403610a6	2.8447661
17	0xc1916d70	-18.178436
18	0x40859eea	4.1756487
19	0xc07f35cd	-3.9876587
20	0xbedf984f	-0.4367089
21	0xc012ef16	-2.2958426
22	0xbfe13620	-1.7594643
23	0x3fd803df	1.6876181
24	0xbf9456a4	-1.1588941
25	0xbfa24a83	-1.2678989
26	0xbfe33100	-1.7749329
27	0x3fe15b74	1.7606034
28	0xbffc79d2	-1.9724677
29	0xc0067837	-2.1010873
30	0xbf715b4f	-0.9427995
31	0x3f6449cf	0.8917512
32	0xc0007c5b	-2.00759
33	0xc00243ee	-2.035396
34	0xbf698249	-0.91214424
35	0x3f71678c	0.94298625
36	0xbf9ce37c	-1.2256923
37	0xbf998546	-1.1993797
38	0xbfe53042	-1.7905352
39	0x3fdd02e4	1.7266507
40	0xc00f31b9	-2.2374098
41	0xbf014620	-0.5049763
42	0xbfd00f33	-1.6254638
43	0x3fd02c62	1.6263545
44	0xc15bc6ea	-13.736063
45	0xbf9d4d11	-1.2289144
46	0x4079c241	3.9024813
47	0xc0720811	-3.7817423
48	0xbfa002e7	-1.2500886
49	0xbfa09b6c	-1.2547431
50	0xbfe50394	-1.7891717
51	0x3fdf8545	1.7462546
52	0xbf4aa182	-0.7915269
53	0xbf654cc8	-0.89570284
54	0xc01b524f	-2.4268987
55	0x401b58e8	2.4273014
56	0xbfbdfee5	-1.4843413
57	0xbea42c56	-0.32065076
58	0xc01751c2	-2.364365
59	0x40165bd4	2.3493547
60	0xc011dc43	-2.2790687
61	0xbf060342	-0.5234872
62	0xbfd2bc3e	-1.6463697
63	0x3fd8001a	1.6875031

visible_bias f4 [16]
0	0x3fae4f81	1.3618013
1	0x3f4e1f6d	0.805167
2	0x3f30e433	0.69098204
3	0x3f93c8d9	1.1545669
4	0x40f29251	7.580361
5	0x3faee643	1.366402
6	0x3f958003	1.1679691
7	0x4002ecfd	2.0457146
8	0x40003631	2.0033076
9	0x3f9bd993	1.2175773
10	0x3faeb861	1.3650018
11	0x40eb3817	7.350597
12	0x3fa1f197	1.2651852
13	0x3f4c9643	0.7991678
14	0x3f58df93	0.8471615
15	0x3fae0767	1.3596009
