data/ising2d/parameters/parameters_nH4_L4_T1.0.npz (npz, 894 bytes, 3 tensors)

hidden_bias f4 [4]
0	0x41364d93	11.393939
1	0x41339d3d	11.225888
2	0x41481f8f	12.507705
3	0xc1461865	-12.380956

weights f4 [16, 4]
0	0xc0808133	-4.0157714
1	0xc030d0fd	-2.7627556
2	0xc04e8350	-3.2267647
3	0x40bc5b1e	5.8861227
4	0xc010758d	-2.2571747
5	0xc06dde84	-3.7167063
6	0xc06f6933	-3.7407959
7	0x40b98a79	5.7981534
8	0xc02dbf53	-2.7148025
9	0xc03f07e8	-2.9848576
10	0xc08d9ce0	-4.4254
11	0x40b85431	5.7602773
12	0xc04bd50d	-3.1848786
13	0xc0479464	-3.118432
14	0xc0825797	-4.073192
15	0x40be2350	5.9418106
16	0xc03bc1df	-2.933708
17	0xc08e834b	-4.453527
18	0xbfffa54e	-1.9972322
19	0x40c75fc9	6.2304425
20	0xc05b888e	-3.4302096
21	0xc030e966	-2.7642455
22	0xc08e90a8	-4.455158
23	0x40af78ce	5.4834967
24	0xc0150f5e	-2.329063
25	0xc047fc00	-3.1247559
26	0xc075b218	-3.838995
27	0x40c4997e	6.143737
28	0xc08350e1	-4.103623
29	0xc05baf87	-3.4325883
30	0xc02745f4	-2.6136446
31	0x40b27433	5.5766845
32	0xc01bbcf3	-2.4334075
33	0xc08cc6c5	-4.399264
34	0xc02bd756	-2.685018
35	0x40bfda18	5.995373
36	0xc086fb77	-4.2181964
37	0xc0072884	-2.1118479
38	0xc05b83f0	-3.4299278
39	0x40c83dec	6.257559
40	0xc06249f2	-3.5357633
41	0xc04877bc	-3.132308
42	0xc06caa13	-3.6978805
43	0x40a560f3	5.1680846
44	0xc02d08ee	-2.70367
45	0xc03b9ad0	-2.931324
46	0xc08dc795	-4.430613
47	0x40b0a448	5.520054
48	0xc0570bc6	-3.3600936
49	0xc038682d	-2.8813584
50	0xc083791c	-4.108534
51	0x40ab9f72	5.3632135
52	0xc02f62a4	-2.7403955
53	0xc08a230d	-4.3167787
54	0xc02027c3	-2.5024269
55	0x40c446e5	6.133654
56	0xc054f830	-3.3276482
57	0xc02f9513	-2.7434738
58	0xc02c9ec5	-2.6971905
59	0x40ccffe0	6.4062347
60	0xc0825da7	-4.073932
61	0xc04d85fb	-3.2113025
62	0xc06e48af	-3.7231863
63	0x40a5c932	5.18081

visible_bias f4 [16]
0	0x3fdfd445	1.7486655
1	0x3ff17f01	1.8866884
2	0x3fe506df	1.7892722
3	0x400881e9	2.132929
4	0x3fba101b	1.4536165
5	0x4028243a	2.627211
6	0x3fd3b159	1.6538497
7	0x4008405d	2.1289284
8	0x3fcefb49	1.6170436
9	0x3fb73889	1.4314128
10	0x4015806a	2.3359628
11	0x40142504	2.3147593
12	0x400db483	2.2141426
13	0x3fe25d2f	1.7684687
14	0x3f9915ab	1.1959738
15	0x4024fe00	2.578003
