data/ising2d/parameters/parameters_nH4_L4_T3.54.npz (npz, 895 bytes, 3 tensors)

hidden_bias f4 [4]
6.780087 6.851473 6.511863 -6.4926286
00000000: 79f6 d840 443f db40 2f61 d040 9dc3 cfc0

weights f4 [16, 4]
-0.76277614 -1.7260323 0.17820211 0.8275614 0.118824266 -0.71073335 -0.7407537 1.867083
-0.7363918 0.17687485 -1.8235515 0.8293514 -1.7524412 -0.78729296 -0.84281033 -0.2193263
0.49540362 -4.0775757 -0.15683667 -0.17612498 0.9107519 -1.5613097 -1.5727172 1.2075568
0.2314391 -0.23303753 -3.647639 -0.077957444 -1.089019 -1.6788503 -1.676086 -0.9893299
-0.8261957 -1.7654729 0.16383323 0.73374045 0.09521463 -0.6439893 -0.7523501 1.8305527
-0.80260366 0.16198549 -1.7941053 0.79056835 -1.8933892 -0.7879754 -0.8198916 -0.3096306
-1.7146976 -0.98876405 0.92936206 1.6026806 -0.51742464 0.18936014 0.24197538 3.3984687
-1.59638 0.71681815 -0.9927331 1.4679974 -3.6338222 0.002592872 0.15505724 0.038906716
00000000: 4c45 43bf a0ee dcbf 9d7a 363e 10db 533f
00000010: 235a f33d 9ff2 35bf 09a2 3dbf 93fc ee3f
00000020: 2c84 3cbf ae1e 353e 236a e9bf 6050 543f
00000030: fe4f e0bf 088c 49bf 6bc2 57bf 1397 60be
00000040: 8ba5 fd3e 807b 82c0 cb99 20be 1b5a 34be
00000050: 0927 693f ffd8 c7bf cc4e c9bf 3991 9a3f
00000060: 5ffe 6c3e 64a1 6ebe eb72 69c0 27a8 9fbd
00000070: f964 8bbf 91e4 d6bf fc89 d6bf b944 7dbf
00000080: 9081 53bf 04fb e1bf e6c3 273e 6ad6 3b3f
00000090: e3ff c23d 7cdc 24bf 049a 40bf 8d4f ea3f
000000a0: 6f77 4dbf 86df 253e 3ea5 e5bf b062 4a3f
000000b0: 945a f2bf c1b8 49bf 6ae4 51bf e787 9ebe
000000c0: 367b dbbf a41f 7dbf acea 6d3f a324 cd3f
000000d0: f175 04bf a0e7 413e 65c8 773e 8380 5940
000000e0: 2e56 ccbf 6581 373f c223 7ebf 57e7 bb3f
000000f0: 8b90 68c0 2ced 293b 53c7 1e3e a65c 1f3d

visible_bias f4 [16]
0.7461748 -0.28980377 0.759973 1.7934729 1.9745028 0.48720706 1.7928727 2.7096248
0.8445618 -0.23480278 0.8037672 1.9148929 0.13220106 -1.6416477 0.21300247 1.7072586
00000000: 5005 3f3f 2961 94be 978d 423f 8590 e53f
00000010: 82bc fc3f 3473 f93e da7c e53f 7e6a 2d40
00000020: 3435 583f 2470 70be b0c3 4d3f 361b f53f
00000030: b75f 073e 8321 d2bf 521d 5a3e 7387 da3f
