data/ising2d/parameters/parameters_nH16_L4_T3.54.npz (npz, 1704 bytes, 3 tensors)

hidden_bias f4 [16]
000000 f4 18 8c 40 3a 2c 2d 40 32 95 bd 3f 4a a7 17 c0
       4.378046 2.7058244 1.4811156 -2.3695855
000010 38 25 68 40 15 6e 9d 40 64 a0 48 40 e5 d3 8d c0
       3.6272717 4.9196877 3.1347895 -4.432116
000020 a9 e4 5c c0 93 8e 31 40 23 70 9c 40 e3 43 8f c0
       -3.4514563 2.774327 4.8886886 -4.477037
000030 c6 60 4d 40 a0 a1 a1 c0 fc 9e 3e 40 60 f5 57 40
       3.2090316 -5.0509796 2.9784536 3.3743515

weights f4 [16, 16]
000000 b7 27 00 be 2e 14 63 bf d2 c3 7d 3f d9 06 84 3e
       -0.1251515 -0.88702667 0.99126923 0.25786474
000010 a7 90 71 3d b4 e5 57 bf 9b 76 11 bf de e1 69 be
       0.05897584 -0.84334874 -0.568216 -0.22840068
000020 a1 79 31 40 dd 09 7a 3e e9 bd 59 3c 41 1b 25 3e
       2.7730486 0.24417825 0.013289907 0.16123678
000030 bb 11 26 be 2a 1b d7 bd 92 a2 ff bf 44 d8 a0 3e
       -0.16217701 -0.10503228 -1.9971488 0.31414998
000040 cd 66 97 bd 82 56 9d c0 bf 22 85 3e cc 54 0b 40
       -0.073926546 -4.91681 0.26003072 2.1770506
000050 21 d7 c6 be a2 4c 12 3f fd 8a 1a c0 6f cf 09 3f
       -0.38836005 0.5714818 -2.4147332 0.53832144
000060 8b fa 32 3e 36 f6 e4 bc a4 cd 37 3c 5b 55 bc 3e
       0.17478387 -0.027949434 0.011218462 0.3678387
000070 37 f1 00 3e ec 8b ad 3c ba 93 d8 bd 03 6a 86 be
       0.12592016 0.021184884 -0.105750516 -0.26252756
000080 78 16 44 be 99 1c 20 bf 7e 6a 08 3e c2 26 0d be
       -0.19149196 -0.62543637 0.13321874 -0.13784316
000090 f8 05 71 3e 92 22 f3 3d e6 a9 36 bf 42 63 b3 40
       0.23537433 0.11871828 -0.71352994 5.6058664
0000a0 19 dc 52 3e e5 44 18 bf 7f 68 7c bf f3 45 10 bf
       0.20591773 -0.59480125 -0.9859695 -0.56356734
0000b0 9f bc 9c 3d 82 6a 8d be 86 a0 58 3c 34 7c 04 be
       0.07653164 -0.27620322 0.0132218655 -0.12938005
0000c0 84 27 9a 3e 19 71 40 3e 7c 9b 99 be 87 85 0c 3d
       0.30108273 0.18793143 -0.30001438 0.03430703
0000d0 10 ad 4b bd f3 be 2a 3e ec cb 17 3e 63 00 b3 3f
       -0.049725592 0.16674404 0.14823884 1.3984493
0000e0 a7 99 8a 3d 1b 6d 05 3d 43 b2 12 3d 57 a7 33 3f
       0.06767588 0.032574754 0.035814535 0.70177215
0000f0 c0 3a 2e bc c2 d7 6c be 62 e5 4f c0 0f bb dd bf
       -0.010634124 -0.2312918 -3.2483754 -1.7322711
000100 45 7f a8 bd 3f 02 72 3d c1 e6 94 3e fe ed b6 3f
       -0.082274 0.059084173 0.290823 1.429138
000110 9a c2 8a 3e 1c 6d df c0 f2 d1 ac 3e 97 e3 3b 3e
       0.27101594 -6.982069 0.33753926 0.18348537
000120 7d d0 31 3f 96 4c 5a bd ef 5d 93 3d f6 42 ea bc
       0.6945875 -0.053295694 0.07195651 -0.028596383
000130 b5 72 22 be 3e b7 8a 3e fc 26 ea bd 03 1e 5c be
       -0.1586407 0.27092928 -0.11433217 -0.21495824
000140 35 e9 e5 bc 36 8a 61 bf 51 b0 01 bf eb 89 20 3f
       -0.028065303 -0.8810152 -0.5065966 0.62710446
000150 fd 39 54 3e d4 2a 90 bf 41 4f 0e bf 17 c4 22 be
       0.20725246 -1.126307 -0.5558968 -0.15895115
000160 03 f9 c2 be c9 0a d3 3d 4d f1 b0 bf 8e aa 20 be
       -0.38080606 0.103047915 -1.3823639 -0.15690061
000170 b5 bb 4d 3e b1 29 a7 3f 31 e9 29 be 64 f9 16 3e
       0.20091136 1.3059598 -0.16592862 0.14743572
000180 e8 e6 89 3e ef f6 63 be 32 12 ee 3d 91 46 00 bf
       0.2693398 -0.22262166 0.11624564 -0.50107676
000190 28 dc 79 be cb 77 24 be cd 36 a6 3c 0e 59 d9 3e
       -0.24400389 -0.16061322 0.020289803 0.42450756
0001a0 1e 80 90 3d d4 95 bc 3e 27 56 c0 c0 87 b9 15 3e
       0.070556864 0.3683306 -6.0105166 0.14621554
0001b0 73 d5 91 bf 00 99 89 3d b2 a3 59 3d b5 ad 2c be
       -1.1393265 0.067186356 0.053134628 -0.16863139
0001c0 46 39 89 be 50 02 f9 3e ca be 44 3e 9f 73 76 3e
       -0.2680151 0.48634577 0.19213405 0.24067543
0001d0 64 0d d5 bd ad de 85 bf a4 34 a7 be 00 e3 2a be
       -0.10402945 -1.045858 -0.3265735 -0.16688156
0001e0 17 9d b0 3e 11 0a 8a 3d 94 30 97 bf 1f 34 67 3e
       0.3449485 0.06740201 -1.18117 0.22578476
0001f0 b0 74 1b 3d 38 24 38 be b9 4b 9c 3c 56 11 6b c0
       0.03795308 -0.17982566 0.019079076 -3.672933
000200 9a 1d 89 bf cd 92 ee b9 6d 16 8e 3e 74 16 d9 bd
       -1.0712159 -0.00045504273 0.27751485 -0.10599986
000210 e9 f7 5d 3e d3 00 98 bf 9e dd 82 bd c6 77 d6 be
       0.21676601 -1.1875252 -0.063899264 -0.41888255
000220 70 64 b0 3d a9 30 4b c0 b0 bf 6d be e6 de 15 3e
       0.08612907 -3.174845 -0.23217654 0.1463581
000230 7d 3e 1b be 1a 67 75 3f 84 1f dc bd 32 63 82 3b
       -0.15160556 0.95860445 -0.10748199 0.00397911
000240 8c 0e 39 bf 26 c9 02 be 02 10 8d 3e c5 2e 7b be
       -0.7228782 -0.12772045 0.27551275 -0.2452956
000250 ca b2 01 bf e0 bb 53 3e 44 c3 90 3d 61 b8 99 3e
       -0.50663435 0.20677137 0.07068494 0.30023482
000260 88 b3 08 be 0f f9 e4 be d6 23 3f 3d f7 9b 0c bc
       -0.13349736 -0.44721267 0.046665035 -0.008582107
000270 9d f2 7e bb 71 72 d5 40 8d d6 a1 be 11 47 6a be
       -0.0038901933 6.67022 -0.31609002 -0.22878672
000280 8e 33 bb bf a2 2e 71 3c 0e 67 24 be fb 70 74 3e
       -1.4625108 0.014720591 -0.16054937 0.23871224
000290 3e 60 e3 bd 8b 40 1d 3e f0 0f b0 3d b3 f8 99 3d
       -0.11102341 0.15356652 0.0859679 0.07518139
0002a0 2d 6f 6a be 3f 5f dd 3e f6 ec 10 bf 42 45 a7 be
       -0.22893973 0.4323673 -0.56611574 -0.32670027
0002b0 1a bc 55 c0 dc a8 9f 3f 32 e1 b6 3b f4 cf 12 3c
       -3.3396058 1.2473407 0.0055810446 0.008960713
0002c0 66 8f a4 c0 d7 9d ba 3e 4d 23 4a 3d 30 d4 04 3f
       -5.1425047 0.36448547 0.04935007 0.5188627
0002d0 3a ee 82 3e b7 7d 77 3e 88 f4 de 3d 90 d7 3e be
       0.25572377 0.2416905 0.108864844 -0.18636918
0002e0 c4 8d 1f bb 8d 8a 03 bf 31 17 9f be 52 75 8f 3f
       -0.0024345974 -0.51383287 -0.3107238 1.1207678
0002f0 4f 0d 62 bd 6b 29 3b bf 91 6a c5 3d cf 2f a6 bf
       -0.055188473 -0.73110074 0.096394666 -1.298334
000300 f3 89 1d 3e f0 39 15 be 75 86 34 c0 b1 61 ae bd
       0.15384655 -0.14572883 -2.8207066 -0.08514727
000310 35 cc ae bf 65 81 6a 3e 1c 1f 42 3e 01 21 19 be
       -1.3656069 0.22900923 0.1895718 -0.14953996
000320 b5 de 5f 40 5a f9 01 c0 04 82 81 bd 4c a7 ae 3e
       3.497968 -2.0308442 -0.06323627 0.34112012
000330 8c bd a1 be 6a 6c 10 3d 8d 96 aa 3e 35 e2 2e 3e
       -0.31589925 0.03525964 0.33317986 0.17078479
000340 dd 90 37 be 84 99 02 bf d0 83 2a 3d 30 db 24 3f
       -0.17926355 -0.51015496 0.041629612 0.64396954
000350 8b 03 98 c0 18 3d 25 bd e6 d0 a0 be e0 0b 4f 3e
       -4.7504325 -0.040341467 -0.31409377 0.20219374
000360 39 d6 9e 3c 50 f7 42 be 43 b2 1a 3e 22 c4 76 3e
       0.019389259 -0.19039655 0.15107064 0.24098256
000370 b1 8f 42 3e 6b 17 5f 3f 43 92 6f 3d cd 79 d7 3d
       0.19000126 0.8714511 0.058489095 0.105212785
000380 8e 11 76 3d 9e a3 b8 3f 18 25 0e 3c 8f 7f 15 3d
       0.060075335 1.4424932 0.008675836 0.036498602
000390 56 30 a1 bf 13 cf f4 bd 61 0c 14 c0 2d 41 9e 3f
       -1.2592876 -0.11953559 -2.3132555 1.236364
0003a0 41 f7 79 be 9d a8 e0 39 32 cc ce 3e 57 7d a8 3f
       -0.24410726 0.00042850236 0.40390164 1.3163251
0003b0 6a 0c ee bf 88 43 ed bc 2e c7 59 3e 1d 84 68 3e
       -1.8597538 -0.028962865 0.21267387 0.22706647
0003c0 53 e4 de be 2b aa 45 3d 79 bb f4 bf 55 7b 00 bf
       -0.43533573 0.048257988 -1.9119712 -0.5018819
0003d0 81 d0 0e 3e 96 4c 45 be a2 11 57 bd a9 77 11 3f
       0.13946725 -0.19267496 -0.05250705 0.5682321
0003e0 8a 0a 0e be 29 6c 23 3e 4f 98 2b 3e 6a 7c 97 40
       -0.13871208 0.15959229 0.1675732 4.7339373
0003f0 7d 87 7e be 6f de 3a 3d 56 f4 54 bf 54 60 8a 3d
       -0.24856372 0.045622285 -0.8318533 0.067566544

visible_bias f4 [16]
000000 47 29 4b bd e7 ef ed 3f 71 c4 9f bf fd be 9c 3f
       -0.049599912 1.8588837 -1.2481824 1.2245785
000010 73 4d fb 3f c5 4e b0 3f fc e3 59 40 6d 75 2a 40
       1.9633011 1.3774039 3.40454 2.663417
000020 ba 64 19 40 59 d2 15 c0 c7 58 ee 3f 77 4e 29 40
       2.3967729 -2.3409636 1.8620843 2.645414
000030 97 72 84 3f 49 89 d5 3f 93 94 c7 3e 13 15 39 bf
       1.034747 1.6682521 0.3898054 -0.7229778
