data/ising2d/parameters/parameters_nH4_L4_T3.286.npz (npz, 896 bytes, 3 tensors)

hidden_bias f4 [4]
000000 89 b8 36 41 36 7a 67 41 7a d7 8d 40 ab 0d a2 c0
       11.420053 14.467337 4.4325533 -5.0641685

weights f4 [16, 4]
000000 40 a2 70 bf e1 3f f3 bf 5c 0e 54 3e de 19 de 3f
       -0.93997574 -1.9003869 0.20708603 1.7351644
000010 01 bd 35 bf 1a 69 8d bf d8 68 38 bf 9b 59 fc 3f
       -0.7099152 -1.10477 -0.7203498 1.9714845
000020 4d 44 35 bf 89 04 11 bf e8 d0 e2 bf 8d 2e ba 3f
       -0.70807344 -0.56647545 -1.7720003 1.4545456
000030 25 91 9a bf 9c 8a 79 bf 2b d7 2d bf 4f 5f 95 3f
       -1.2075545 -0.97477126 -0.67906445 1.1669711
000040 09 8b 56 40 75 7e 4c c1 a5 f3 99 3f 23 dc 4f c0
       3.352236 -12.780873 1.202748 -3.247811
000050 92 56 8b be 1c 0b dc bf 60 e8 be bf 1a 9a 64 3f
       -0.27214485 -1.719089 -1.4914665 0.8929764
000060 29 4a bc be 58 49 80 bf ea f8 68 c0 4e b3 3e 3e
       -0.3677533 -1.0022383 -3.6401925 0.18623087
000070 9e 04 a5 bf 57 6b d2 bf 90 75 b5 bf 54 8e 39 be
       -1.2892034 -1.6439008 -1.4176502 -0.181207
000080 e0 46 f5 bf 5c b3 df bf 3a 64 06 3f 59 75 68 3f
       -1.9162254 -1.7476611 0.52496684 0.9080406
000090 8c ad 9f bf 8b ff 68 bf d6 11 0b bf 60 10 a9 3f
       -1.2474837 -0.9101493 -0.5432409 1.3208122
0000a0 da 7e d8 bf bf f0 d4 be d8 f2 c0 bf 48 5b 0d 3f
       -1.6913712 -0.41589925 -1.507411 0.5521741
0000b0 d6 e7 03 c1 0f e5 8a bf 80 5b 26 be 09 24 a6 c0
       -8.244101 -1.0851153 -0.16245842 -5.191899
0000c0 be e6 02 c0 95 93 a2 bf b4 f3 90 3f ea 1e 1c 40
       -2.0453334 -1.2701288 1.1324372 2.4393868
0000d0 06 a6 c4 bf 33 81 50 bf 88 07 45 3e f3 ae 26 40
       -1.5363166 -0.8144714 0.19241154 2.604428
0000e0 b3 50 be bf 5b a8 b2 be 6c 17 39 bf 1f 54 df 3f
       -1.4868377 -0.3489407 -0.72301364 1.7447547
0000f0 ba a0 16 c0 d4 b2 1f bf 2f d3 8f 3e 4a ff bb 3f
       -2.35356 -0.62382245 0.28090808 1.4687283

visible_bias f4 [16]
000000 0e fe f6 3e cb a4 9f 3e 93 c4 4b 3f 99 b5 5e 3f
       0.48240703 0.31180415 0.79596823 0.86995846
000010 a3 de b6 40 d9 72 a7 3f a9 b6 19 40 25 b4 0e 40
       5.7146773 1.3081924 2.4017737 2.2297451
000020 6d 1e 93 3f 09 62 2e 3f 4d b0 c4 3f 7d d8 eb 40
       1.149366 0.6811834 1.5366303 7.370177
000030 42 00 00 be 12 ab 60 be 96 67 d5 3e d1 33 20 3f
       -0.12500098 -0.21940258 0.41680592 0.62579066
