data/ising2d/parameters/parameters_nH16_L4_T1.254.npz (npz, 1686 bytes, 3 tensors)

hidden_bias f4 [16]
0	0x411f579f	9.958892
1	0x4104c275	8.297475
2	0x40d7fa8e	6.7493353
3	0xc08f6b83	-4.481874
4	0x40f340f2	7.601678
5	0x41100051	9.000077
6	0x40b64226	5.6955748
7	0xc0292c12	-2.6433148
8	0xc0dfdbea	-6.995595
9	0x40a2e487	5.0903964
10	0x410c598d	8.771863
11	0xc0c4e9aa	-6.1535234
12	0x41147572	9.278673
13	0xc00dd621	-2.2161944
14	0x4101eeef	8.120833
15	0x41025a50	8.147049

weights f4 [16, 16]
0	0xbf55f8ef	-0.8358297
1	0xbdab0a94	-0.08351627
2	0xbff2563a	-1.8932564
3	0x40022828	2.033701
4	0x3e99b2d5	0.3001925
5	0xc0031e73	-2.0487335
6	0xbfa4bc9e	-1.2870061
7	0x40026716	2.0375419
8	0x3ff54ade	1.9163473
9	0x3f9179ea	1.136533
10	0xbe8f43ce	-0.27981418
11	0x3e2b1ae6	0.1670948
12	0x3f11b5bc	0.5691793
13	0x3f689e05	0.9086612
14	0xbfce4f2c	-1.6117911
15	0xbef20666	-0.47270507
16	0x3e65015c	0.223638
17	0xc008a55f	-2.1350935
18	0x3ef48a5e	0.47761816
19	0x40268f42	2.6024938
20	0xbfa9060e	-1.3204973
21	0x3ebfc451	0.37454465
22	0xc00e3d61	-2.2224963
23	0x3f227600	0.63461304
24	0x3faf849d	1.3712345
25	0x3d8ae405	0.067817725
26	0xbfd418e4	-1.6570096
27	0x3f4ff6ca	0.81235945
28	0xbf24b0c6	-0.64332235
29	0x3fa26926	1.2688339
30	0x3f0d5e79	0.5522228
31	0xbf139c85	-0.57660705
32	0x3f8a557c	1.0807338
33	0xbfe0d4e3	-1.7564968
34	0x3f02c52c	0.5108211
35	0x3fa5ed9a	1.2963135
36	0xc003da02	-2.0601811
37	0x3fa3038b	1.2735456
38	0xc011df7c	-2.2792654
39	0x405a84bc	3.4143515
40	0xbf829850	-1.0202732
41	0xbedf7ab3	-0.436483
42	0xc014e9cc	-2.3267698
43	0x3e36bad8	0.17844713
44	0xbf491939	-0.7855411
45	0x402aa916	2.6665702
46	0xbfbcbdcd	-1.4745423
47	0xbf40178a	-0.7503592
48	0xbed5d4a6	-0.417638
49	0xbf0fa8a3	-0.56116694
50	0xbfd4ee11	-1.6635152
51	0x3f9679e4	1.1755948
52	0xbf70cf8a	-0.9406668
53	0xbffffc63	-1.9998897
54	0xbf707e95	-0.9394315
55	0x4052ecc3	3.2957008
56	0x3f2a0469	0.6641298
57	0x3fa4d682	1.2877963
58	0x3f9f173d	1.2428967
59	0x3f0e6a33	0.556308
60	0xbf6ad109	-0.9172521
61	0x3f9b20a8	1.2119341
62	0xbfa0f5e0	-1.2575035
63	0xbfaeedcd	-1.3666321
64	0xbd55a3e3	-0.052158248
65	0xbf98be0d	-1.1932999
66	0x3ec4e9d2	0.3845964
67	0x400c103a	2.1884904
68	0xbf59bef2	-0.85056984
69	0xc004ffdc	-2.0781164
70	0x3f89e1e4	1.0772061
71	0x3f9ad0c7	1.2094964
72	0x3eef3d39	0.46726397
73	0xbfbb2f7f	-1.462387
74	0xbf0cd259	-0.55008465
75	0x3f9bf3ea	1.2183812
76	0xbf039e9a	-0.5141388
77	0x3f472339	0.7778812
78	0xbfd9beeb	-1.7011389
79	0xbf400a25	-0.7501548
80	0xbe68e752	-0.22744492
81	0xbf16d02a	-0.58911383
82	0x3f8ce090	1.1006031
83	0x3f9e6972	1.2375929
84	0xbcd68b43	-0.026189452
85	0xbfaed75f	-1.3659476
86	0x3ea87346	0.32900447
87	0x3fd1bec7	1.6386346
88	0x3f382979	0.7193828
89	0xc01dde81	-2.4667056
90	0xc00784b9	-2.1174757
91	0x3e1ca071	0.15295579
92	0xbeecb20b	-0.46229586
93	0x40465a01	3.0992434
94	0xbf935a57	-1.1511945
95	0xbf4a26e9	-0.7896562
96	0x3ea1eea7	0.3162739
97	0x3f2df8c0	0.6795769
98	0xbeaf2370	-0.34206724
99	0x3f913af7	1.134612
100	0x3e8e26ff	0.27764127
101	0x3f2168d4	0.6305058
102	0x3f5e0f29	0.8674188
103	0x3fcd56d4	1.6042123
104	0x3fa6c6d3	1.3029426
105	0xc0079d42	-2.1189733
106	0xc020b1db	-2.5108554
107	0xbe898f18	-0.26866984
108	0xc00cecc2	-2.2019506
109	0x404870a8	3.131876
110	0xc00f80f2	-2.2422452
111	0xbfcf1660	-1.6178703
112	0xbeb21041	-0.34778026
113	0x3eb7d46b	0.3590425
114	0x3f39e386	0.726128
115	0x3f8af370	1.0855541
116	0xbf8951fe	-1.0728147
117	0xbfdbf9b1	-1.7185575
118	0x3f648e1d	0.8927935
119	0x402454d9	2.5676787
120	0x3fbb5ee4	1.4638333
121	0xbe695360	-0.22785711
122	0xbed37d1f	-0.41306397
123	0x3f87dd8a	1.0614483
124	0xc0081d6c	-2.1267958
125	0x3e954ea2	0.29161555
126	0xc0031d92	-2.0486798
127	0xbfbafb57	-1.4607953
128	0xbfca1abf	-1.5789412
129	0xbfbf5cbb	-1.4950174
130	0xbf39a205	-0.7251285
131	0x3f35b0d5	0.7097295
132	0x3f2409be	0.64077365
133	0xbfa9927f	-1.3247832
134	0xbebad911	-0.36493734
135	0xbeb11516	-0.345864
136	0x3feb4dd6	1.8383129
137	0xc026cf23	-2.6063926
138	0xbe9882c6	-0.29787272
139	0x3f612a1c	0.8795488
140	0xbfa1c8dc	-1.2639422
141	0x403ae807	2.9204118
142	0x3f8c2934	1.0950074
143	0xbeac0102	-0.3359452
144	0xc00608de	-2.0942912
145	0xbfc286b5	-1.5197359
146	0x3e17bab3	0.14817314
147	0xbea9e377	-0.33181354
148	0xbe925eca	-0.28587943
149	0xbf8337a4	-1.0251355
150	0x3f7d2a48	0.9889264
151	0x3f7729a2	0.965479
152	0x3d9225b7	0.071361
153	0xc0435405	-3.0520031
154	0xbe272797	-0.16323696
155	0x3ff7ca46	1.9358604
156	0xbef63f18	-0.48095012
157	0x40779d52	3.868977
158	0xbf2a5dd2	-0.6654941
159	0xbf237c0e	-0.6386117
160	0xbfe2dee4	-1.7724271
161	0xbee48438	-0.44632125
162	0x3f6a1d97	0.914514
163	0x3fb47f8b	1.4101423
164	0x3e419561	0.1890464
165	0x3e6d3cd1	0.23167731
166	0xbeab1a39	-0.33418444
167	0x3f4856e1	0.78257567
168	0x3f9a0bc6	1.2034843
169	0xbf8a6f73	-1.0815262
170	0xbf930e00	-1.1488647
171	0xbdf89b0c	-0.12138948
172	0xbff08f30	-1.8793697
173	0x40629777	3.5404947
174	0xbfe6c3ea	-1.8028538
175	0xbf87fc2b	-1.062383
176	0xbfbe38fd	-1.4861141
177	0x3e8e1bcd	0.27755585
178	0xbe2b511f	-0.16730164
179	0x3fc3f085	1.5307776
180	0xbeb789b5	-0.3584725
181	0xbf301ffc	-0.68798804
182	0x3ddbb692	0.10728182
183	0x3fdf0e73	1.7426285
184	0x3f217509	0.63069206
185	0xbfcf65ad	-1.6202904
186	0xbefc6709	-0.4929736
187	0x3fc79b09	1.5594188
188	0xbfabaaf1	-1.3411542
189	0x3f75540e	0.9583138
190	0xbdb9b849	-0.09068353
191	0xbfad6d7f	-1.354904
192	0xbfd790bf	-1.6841048
193	0x3d341890	0.043968737
194	0xc062fbe0	-3.5466232
195	0xbc9e2616	-0.01930527
196	0xbeca7ccf	-0.39548346
197	0xbfcdc011	-1.6074239
198	0xbec7e534	-0.39042056
199	0x40070365	2.1095822
200	0x3fcedc01	1.616089
201	0x3f80b1cc	1.0054259
202	0x3ed7df34	0.42162478
203	0x4019a337	2.4005868
204	0x3f3df005	0.74194366
205	0x3fa43bb9	1.2830726
206	0xbf8bcf9d	-1.0922734
207	0xbe44e1d7	-0.19226776
208	0xbfb01d55	-1.3758951
209	0xbf9ac5a1	-1.2091562
210	0xc0120430	-2.2815056
211	0x3f91638b	1.1358503
212	0xbf6fed16	-0.9372114
213	0x3e400ad0	0.18754125
214	0xbf80acff	-1.0052794
215	0x3fa2488c	1.267839
216	0x3e84cb09	0.25936154
217	0xbf28c38c	-0.6592338
218	0xbeaf6085	-0.34253326
219	0x402fe64e	2.7484317
220	0xbf129dee	-0.5727223
221	0x3f818a53	1.0120338
222	0x3f5ce474	0.8628609
223	0x3f0197c9	0.5062223
224	0xbf69c360	-0.91313744
225	0xbf44391a	-0.7664963
226	0xbfb74a58	-1.4319563
227	0xbe04fb1d	-0.12986417
228	0xc014f0c5	-2.3271954
229	0xbe0ec2ee	-0.13941547
230	0xc0396104	-2.8965464
231	0x40395b12	2.8961835
232	0x3f73319a	0.9499756
233	0x3fbf9f64	1.4970517
234	0xbfa46269	-1.2842532
235	0x3d5154ae	0.051106147
236	0xbf51398c	-0.81728435
237	0x401e1722	2.470162
238	0x3f39c7c4	0.72570443
239	0xbf02450d	-0.50886613
240	0xbfed2d65	-1.8529478
241	0xbf987056	-1.1909282
242	0xc03a47b8	-2.9106274
243	0x3fb2e551	1.3976232
244	0xbfe984f1	-1.8243695
245	0xbf6a38c1	-0.9149285
246	0xbffb1c46	-1.9618003
247	0x4040a9bf	3.0103605
248	0xbf111087	-0.56665844
249	0x3fe6d5fc	1.8034053
250	0xbeb8c3a9	-0.36086777
251	0x4015a207	2.3380144
252	0x3df94637	0.121715955
253	0xbd42e0c6	-0.047577642
254	0x3eca9bc2	0.3957196
255	0x3e26febf	0.16308115

visible_bias f4 [16]
0	0xbe3a2a46	-0.18180189
1	0x3e61e5a7	0.22060262
2	0x3f121fd0	0.5707979
3	0xbe33d0f4	-0.17560178
4	0x3f62724c	0.88455653
5	0xbd4154ad	-0.047199894
6	0x3ef15c3d	0.47140685
7	0x3ef0a4bb	0.4700068
8	0x3f5e0b3a	0.8673588
9	0x3f138ec4	0.5763972
10	0x3e78a158	0.24280298
11	0x3ec8664d	0.3914055
12	0xbea26898	-0.31720424
13	0x3e229cdf	0.15880154
14	0x3f581afd	0.8441618
15	0x3f9609a9	1.1721698
