data/ising2d/parameters/parameters_nH16_L4_T3.286.npz (npz, 1699 bytes, 3 tensors)

hidden_bias f4 [16]
00000000: dae4 bd40 c3fb 9840 dcee 8a40 13d3 40c0
00000010: 68df 5240 1f97 a240 c06e 8740 6884 98c0
00000020: 1d7b 2fc0 870f 35be a9e9 4240 8b7f 5fc0
00000030: dfa1 6440 9d24 b5c0 4d93 4a40 eafe 4340
5.934186 4.7807326 4.3416576 -3.012883 3.2948856 5.0809474 4.2322693 -4.766163
-2.7418892 -0.17681704 3.0455115 -3.4921596 3.5723798 -5.6607194 3.1652405 3.0624337

weights f4 [16, 16]
00000000: 21f8 103f 8b24 97bf 46fc d6be dc18 cf3e
00000010: 4745 5e3e d1d3 a5bf 8466 39bd 3904 b83d
00000020: 8e56 2a40 d906 3bbe bbb8 db3d 4ac4 5e3e
00000030: f2f0 863e 13e1 f3bc 3c30 3e3e 031c a8bf
00000040: c7d9 5dbe 7294 ccc0 9382 27be 0f3b 923f
00000050: bddd 7f3d d6bd 08be 915f 0f3d e748 8d3e
00000060: 7282 893e 21f3 183d b438 3fbf 4bcf 403e
00000070: 741f 823e d1b0 c23d 45d3 6d3e ea9d cf3e
00000080: ac94 053e c13b aabf a145 453e 6ae4 12bd
00000090: 2ae3 c5bc c3ab 163e b967 babf 372c 1e40
000000a0: 11e7 e0bd 12a4 bbbf 386b 11be 082a 0cbc
000000b0: 0866 a0be c0e2 8ebc 1ef7 a9bf 8a53 5a3f
000000c0: 335b b33d 9d18 bfbd ea97 22bf d801 983e
000000d0: aba3 f53d 506a 4cbe ce29 693f 24ce a340
000000e0: a42c 1f3d 3e78 5d3d a5af 09be 07ba 8ebd
000000f0: 68a7 22bd b4c8 d63d 18b9 9cbe a463 b1c0
00000100: 7df5 a0bd db64 5e3f 2b5e 1ebe 44fc 1d40
00000110: eb1c 21be ffbe f2c0 6fac 24be 464f 7b3e
00000120: eaa0 1abe a56e 80be 8613 2ebf 66a3 553e
00000130: 6cb7 c3be ad85 27be e8de dd3d d5c3 133f
00000140: be8a 1cbe fd39 54bf 71be cfbd 7c45 9f3e
00000150: e94e aebb 0f36 4cbf 7b80 93be 580c f0bd
00000160: d93e 95bc 4ae0 0c3f 2afd 64c0 5ffa 9fbe
00000170: e2aa 9cbd be47 7e3f 5f2a 28be 29f6 383d
00000180: 1736 a13e 570d 69bd 4174 f93e 8038 bd3e
00000190: 92b9 9f3e dfd7 0a3f b672 cb3c 55d9 c9bd
000001a0: aca9 ff3e b3fb 4cbf 96bf ddbf 9641 c93e
000001b0: dc52 5bc0 f7d3 a0bd 0c09 66c0 a84d 0a3e
000001c0: 28bc a9bf 1ac4 d6bd e128 01be d44b 64be
000001d0: d5b4 1a3e c0a1 aebf 7c66 9c3d 4e1c 5e3e
000001e0: ee05 dcbd 15e9 bdbc f030 633d 5133 97be
000001f0: 1d18 13c0 6371 9dbd 6c64 8b3e 920c a2bf
00000200: e37a 9ebf e920 ec3d 16a6 cabf 7f43 193f
00000210: 25a6 7c3e ad95 81bf b22b 98bd 7ae4 8abe
00000220: c5ee 6cbe 892d c4be 4093 c23d 7000 8c3c
00000230: 2dda 083e 4a1a b33f 7fe5 9ebd 159a f9bd
00000240: 567f a3bd f931 673d 8ca7 153d d1da c2be
00000250: 03df 85bf 814e 6cbe 2638 b73e da10 e3ba
00000260: a0bb 203e 6f89 0f3d 5faa fcbe 973d 713e
00000270: bfdc 67be 0e78 e140 f2b6 583d c742 2e3d
00000280: 3fc5 acbf 8ae0 3abd 870c 20be d0ee a83e
00000290: eed8 efbc f714 e63b f6ab a1bf cbf8 8f3d
000002a0: 2d6e 4f3e 7619 d93f 8f75 db3e 8a95 7bbe
000002b0: 1ec8 06be 217d aa3f 0d75 16c0 7177 ed3d
000002c0: 9310 01c1 7dfa 8b3e 881c c5bc 2488 363e
000002d0: 83e5 dbbc eda8 353e 7d65 c03c cb68 7c3c
000002e0: 573e 763f 87b6 dabe 1d76 0b3e dd66 bf3e
000002f0: a798 7bbd 483f 98bd 8c00 62be 2513 fabd
00000300: c915 e83e 0482 763e d13e b0c0 3e31 adbe
00000310: 2a0b 3cbf dfae 443d 6e80 07be 8fb6 0b3e
00000320: 24c9 d93f 6d14 dabe 8a75 d1bd 11fb d03f
00000330: d8ab 0bbe 9106 60be 5469 ccbd ff75 2f3f
00000340: bfc6 583d 2802 a9bf acc5 74bf 86bf 0f3f
00000350: cabb 6bc0 d677 b63e c114 ce3e 350c 64be
00000360: 46ab 5c3d 7a0b acbd ca09 e23d 5a68 533e
00000370: f996 c2be c46d 1d3f fad9 623d 5cf0 2dbe
00000380: 2e59 513d 8d08 833d 84ff f13e c830 503f
00000390: 980a 0bc0 b07c 1f3f 1f1f bac0 88b4 0e3f
000003a0: 1f11 23bc c5ad d43e c056 053f 5498 483f
000003b0: 9975 cebe a0b5 0c3e b9d4 c53d 80f5 dbbe
000003c0: 812c 95bf 5dd6 d33d adca cebe 40fc a5be
000003d0: f8c7 113e 13d0 0fbd 5513 5abf 5a16 7e3f
000003e0: 5c88 97be 23ac 1e3f c342 a2be 30df 5540
000003f0: 7200 2cbe 195d 1ebe f985 cc3e 6dac 2abf
0.56628615 -1.1808027 -0.41989344 0.40448654 0.21706115 -1.2955266 -0.045263782 0.089851804
2.6615329 -0.18264331 0.10728594 0.21754566 0.26355702 -0.02977041 0.18573087 -1.3133548
-0.21665107 -6.393121 -0.16358404 1.1424273 0.062467325 -0.13353667 0.03500325 0.27594683
0.26857334 0.03734124 -0.746959 0.18829076 0.25414622 0.09506381 0.23225124 0.40550166
0.13044995 -1.3299485 0.19264843 -0.035862364 -0.024156172 0.1471396 -1.4562904 2.4714487
-0.109815724 -1.4659445 -0.14201057 -0.008554943 -0.31327844 -0.017442107 -1.3278539 0.8528372
0.08757629 -0.093308665 -0.6351305 0.29688907 0.11994108 -0.1996243 0.91079414 5.1189137
0.038860932 0.05406975 -0.1344591 -0.06969076 -0.039710432 0.104875 -0.30609965 -5.543413
-0.07859323 0.86872643 -0.1546561 2.468522 -0.15733688 -7.585815 -0.16081403 0.24541959
-0.15100446 -0.25084415 -0.6799854 0.20863113 -0.38225877 -0.16359587 0.108335316 0.5772069
-0.15287301 -0.82900983 -0.10143746 0.311077 -0.0053194654 -0.79769987 -0.2880896 -0.117211044
-0.018218445 0.5502974 -3.577952 -0.31245705 -0.07649781 0.9932822 -0.16422413 0.04515663
0.3148658 -0.056897487 0.48721507 0.3695717 0.31196266 0.54235643 0.024834972 -0.09855906
0.49934137 -0.8007156 -1.7324092 0.3930785 -3.4269323 -0.07852929 -3.5943022 0.13506186
-1.3260546 -0.10486622 -0.1261325 -0.22294551 0.15108044 -1.3643112 0.07636735 0.21690485
-0.107433185 -0.023182431 0.055466592 -0.2953134 -2.2983468 -0.076876424 0.27225053 -1.2660086
-1.2381252 0.115297146 -1.5831935 0.59868616 0.24672754 -1.0123802 -0.07430209 -0.2712744
-0.23137958 -0.3831599 0.09500742 0.017090052 0.13364477 1.3992398 -0.07758617 -0.12187592
-0.07983272 0.056444142 0.03653674 -0.3805757 -1.0458683 -0.23076822 0.35785025 -0.0017323748
0.15696573 0.035043176 -0.49348733 0.23558651 -0.22642802 7.045905 0.052908845 0.042544153
-1.3497695 -0.045624293 -0.15629779 0.329947 -0.029278245 0.007021542 -1.2630603 0.07029875
0.20256872 1.6960895 0.42863128 -0.24568763 -0.13162276 1.3319436 -2.3508942 0.11595047
-8.066546 0.27339545 -0.024061456 0.17825371 -0.026842838 0.17740221 0.023485893 0.015405844
0.96188873 -0.42717382 0.13619275 0.37383166 -0.061424877 -0.07433945 -0.22070521 -0.12210683
0.4532912 0.24073035 -5.507668 -0.3382663 -0.73454535 0.048018333 -0.13232586 0.1364386
1.7014508 -0.4259371 -0.10227497 1.6326619 -0.13639772 -0.21877505 -0.09981027 0.6853942
0.052923914 -1.3203783 -0.95614123 0.56151617 -3.6833367 0.35638303 0.4025021 -0.22270282
0.053874277 -0.084006265 0.11037023 0.20645276 -0.38005808 0.61495614 0.05538366 -0.16986221
0.05111044 0.06398115 0.47265255 0.81324434 -2.1725216 0.62299633 -5.816299 0.5574422
-0.009952812 0.41538826 0.52085495 0.78357434 -0.40324095 0.1374116 0.09659714 -0.4296074
-1.1654207 0.10343621 -0.40389004 -0.32419014 0.14236438 -0.035110544 -0.8518575 0.99252856
-0.2959622 0.6198141 -0.3169156 3.3417473 -0.16797045 -0.15465201 0.39945963 -0.6666935

visible_bias f4 [16]
00000000: ae7f 6abe f1b1 1440 c74d 8f3f 6873 d7bd
00000010: 0a74 1340 cab7 0d40 0217 4c40 f935 4840
00000020: 4b7b 903f f52c 2bc0 0f6e 4e3f a96d 5140
00000030: 9928 9b3f 0105 0940 cb84 1240 ae9b e6be
-0.22900268 2.3233607 1.1195611 -0.10520059 2.3039575 2.2143426 3.1889043 3.1282942
1.1287626 -2.674619 0.80636686 3.2723181 1.2121764 2.1409304 2.289355 -0.4504065
