data/ising2d/parameters/parameters_nH16_L4_T2.778.npz (npz, 1697 bytes, 3 tensors)

hidden_bias f4 [16]
0	0x40a5a019	5.175793
1	0x408d5f4c	4.417883
2	0x40a79361	5.2367406
3	0xc02431f6	-2.5655494
4	0x40a8d256	5.275676
5	0x4094c6da	4.649274
6	0x40521b38	3.2829113
7	0xc0a0f01c	-5.02931
8	0xc06cb309	-3.6984274
9	0x403bac20	2.9323807
10	0x409608d4	4.6885777
11	0xc0730395	-3.7970936
12	0x4095e20b	4.683843
13	0xc0aec122	-5.461076
14	0x401fc58c	2.4964323
15	0x4078d522	3.8880086

weights f4 [16, 16]
0	0x3e59fbe7	0.212875
1	0xbfdbeee6	-1.7182281
2	0xbfaa11f1	-1.3286725
3	0xbf3ea989	-0.7447744
4	0x3f053194	0.52028775
5	0xbf9825e8	-1.1886568
6	0x3e9ae5d7	0.3025348
7	0x3fe9bb2d	1.8260247
8	0x406bf25e	3.686668
9	0xbbab2a0d	-0.0052235187
10	0x3d408641	0.047003035
11	0xbf046877	-0.517219
12	0x3ed443ff	0.41458127
13	0x3e3c1076	0.18365654
14	0xbe8188f2	-0.25299793
15	0x3e13506d	0.14386149
16	0x3e3213f7	0.17390428
17	0xc095f103	-4.6856704
18	0x3f525d4c	0.8217361
19	0x3fbe557e	1.486984
20	0x3e59d8ec	0.21274155
21	0x3e6fd7ea	0.23422208
22	0xbf3a33b9	-0.7273517
23	0xbeb0ca81	-0.34529498
24	0x3f3a3bda	0.72747576
25	0x3e8f3483	0.2796975
26	0xbfe56df2	-1.7924178
27	0x3f818aec	1.012052
28	0x3db2333c	0.087011784
29	0xbe8d71dd	-0.27625933
30	0xbe0a07f4	-0.13479596
31	0x3cbcb95d	0.023037607
32	0x3e129655	0.1431516
33	0xbf10beb1	-0.5654097
34	0xbb419ef3	-0.0029544204
35	0x40030d2e	2.0476794
36	0xbf394dc9	-0.72384316
37	0x3e3832b3	0.1798809
38	0xc03b4baa	-2.9264932
39	0xbdb04f92	-0.08608927
40	0x3ec72ba8	0.38900495
41	0xbe243d80	-0.16039085
42	0x3d16f53e	0.036854975
43	0xbe6223df	-0.22083996
44	0xbf619c90	-0.8812952
45	0xbeedeb7c	-0.46468723
46	0xc05132fc	-3.2687368
47	0x3e84b730	0.2592101
48	0x3ec39ba2	0.38204676
49	0xbe96a094	-0.29419386
50	0x3e40b607	0.18819438
51	0xbd8ff855	-0.070297875
52	0x3e26117f	0.16217612
53	0xbdb1ccec	-0.08681664
54	0xbe4a44df	-0.19752835
55	0x40b17266	5.5452147
56	0xbe38a6ac	-0.1803233
57	0x3e5aa478	0.21351802
58	0xbd500a35	-0.050790984
59	0xbd514370	-0.051089704
60	0x3ee567c8	0.4480574
61	0xbe5a3c10	-0.21311975
62	0xc01bf204	-2.4366465
63	0xc00231eb	-2.0342968
64	0xbed02e7e	-0.4066047
65	0x3d3c6646	0.045995973
66	0xbe7f4bfa	-0.24931327
67	0x3ee019f2	0.43769795
68	0x3e8affb4	0.2714821
69	0xc0d3c060	-6.6172333
70	0x3e281ede	0.16418025
71	0x3ab41d1a	0.0013741583
72	0x3f326bc5	0.69695693
73	0xbe8a882e	-0.27057022
74	0xbe102799	-0.14077605
75	0x3f2f0670	0.683692
76	0xbf0b82c8	-0.5449643
77	0x3e9d717f	0.30750653
78	0xbcc57388	-0.024102941
79	0xbd8bc859	-0.06825323
80	0x3e9ea44d	0.30984727
81	0xbe91615a	-0.28394586
82	0x3d0701e0	0.032960773
83	0x3dd75d3a	0.105158284
84	0x3d3046ee	0.043036394
85	0xbfc38a9c	-1.5276675
86	0xbd4a6485	-0.04941227
87	0xbd5e2d9c	-0.054242715
88	0xbd4072f6	-0.046984635
89	0xbd6ba71d	-0.05753242
90	0xc092c2ba	-4.5862703
91	0xbe65ae2a	-0.2242972
92	0x3e86c5e7	0.26322863
93	0x3fc9612b	1.5732778
94	0x3ce86087	0.02836634
95	0x3dc7209b	0.09723016
96	0x3f06dc5b	0.52679986
97	0x3f3029ca	0.68813765
98	0x3e6da99a	0.23209229
99	0x3d2e7051	0.042587582
100	0xbdcb6813	-0.0993196
101	0x3f164e80	0.5871353
102	0xbf74e6d2	-0.95664704
103	0x3e8513d3	0.25991687
104	0x3f337187	0.70095104
105	0xbeb93b06	-0.36177844
106	0xc0139b2e	-2.3063464
107	0x3d8c9dd8	0.06866044
108	0xc0be1227	-5.939716
109	0x3d946974	0.07246676
110	0xbe9b30d2	-0.30310684
111	0xbe904ed4	-0.2818514
112	0xbf1adef2	-0.6049644
113	0xbd23287e	-0.03983354
114	0xbd8c17b2	-0.06840457
115	0x3e846441	0.25857738
116	0x3e261f71	0.16222931
117	0xbfb9d654	-1.4518533
118	0x3ea42383	0.32058343
119	0xbdf902b7	-0.12158721
120	0x3de741ff	0.11291885
121	0x3bccd613	0.0062511056
122	0x3b5d5c52	0.003377695
123	0xbd220099	-0.03955135
124	0xbfc31807	-1.5241708
125	0xbe83f987	-0.25776312
126	0xbea8435c	-0.3286389
127	0xc07f7bcc	-3.991931
128	0xbf95906d	-1.16847
129	0xbdcdfba0	-0.10057759
130	0xbf9db291	-1.2320119
131	0x3ef16d07	0.47153494
132	0x3d135799	0.03597221
133	0xbfb153fc	-1.3853755
134	0x3dbe2d0e	0.09285937
135	0x3e81d6b3	0.25359115
136	0xbdfc3841	-0.12315417
137	0xc03e6076	-2.9746375
138	0x3e584758	0.21120965
139	0x3e8b7141	0.27234843
140	0x3d596692	0.053076334
141	0x3e39d7b5	0.18148692
142	0x3ec89efe	0.391838
143	0x3db6c7fc	0.08924863
144	0x3ec8c952	0.39216095
145	0xbe9e224e	-0.30885547
146	0x3e244105	0.16040428
147	0x3d8c16b1	0.068402655
148	0xbd3446f5	-0.044012982
149	0x3ec5138c	0.38491476
150	0xbf106142	-0.56398404
151	0x3d37b11f	0.04484665
152	0xbe8cfebc	-0.27538097
153	0xc00fd723	-2.247506
154	0xbcbf7b56	-0.02337424
155	0x3e8f4ef9	0.2798994
156	0x3ea51a56	0.32246655
157	0x40de842d	6.9536347
158	0xbe3b95cd	-0.18318863
159	0xbf030220	-0.5117512
160	0xbfc9e635	-1.5773379
161	0xbeb20754	-0.34771216
162	0xbe23994a	-0.15976444
163	0xbf217d0a	-0.6308142
164	0xbfd1badc	-1.638515
165	0x3d7f5f72	0.062346883
166	0xbe9df9c0	-0.30854607
167	0x3d347024	0.044052258
168	0xbddd9f10	-0.108213544
169	0xbc405d21	-0.011740954
170	0x3d8c66c5	0.06855539
171	0xbebf7548	-0.37394166
172	0xbfdcf630	-1.726263
173	0x3fcc0801	1.5939943
174	0x3d64fa16	0.055902563
175	0x3dece6a8	0.11567432
176	0xc1022c6e	-8.135847
177	0x3e01eab7	0.12687193
178	0x3e12532e	0.14289543
179	0x3eac88dd	0.33698168
180	0x3d3ae713	0.045630526
181	0x3f14b530	0.5808897
182	0xbe12d89b	-0.14340441
183	0x3e465f51	0.19372298
184	0x3f00fc25	0.5038474
185	0xbf17c6d3	-0.59287757
186	0xbef15a96	-0.47139424
187	0x3f399c6d	0.7250431
188	0xbec1f0bc	-0.37878978
189	0x3ddc21d1	0.107486375
190	0x3e065609	0.13118757
191	0xbf9e9e16	-1.2391994
192	0x3d3ac2a3	0.045595776
193	0xbf11328a	-0.5671774
194	0xc0d5d107	-6.681766
195	0x3e73c06b	0.2380387
196	0x3f2440a7	0.6416115
197	0x3ee113e6	0.43960494
198	0x3e34ec85	0.1766835
199	0x3e9ef621	0.31047156
200	0x3edcda9e	0.43135542
201	0xbf07101c	-0.52758956
202	0xbdbdf7e1	-0.09275795
203	0x3fdf37a8	1.743886
204	0xbe2d3120	-0.16913271
205	0xbd15bc53	-0.036556553
206	0x3d8c9edf	0.0686624
207	0x3e05c11e	0.1306195
208	0x3f05868c	0.5215843
209	0xbf9b9181	-1.2153779
210	0xbe9d0333	-0.30666503
211	0xbf2d6dc5	-0.6774562
212	0xbfb3c777	-1.4045247
213	0x3ee9bdde	0.4565267
214	0xbf41d299	-0.7571197
215	0x3d9cfd0c	0.07665452
216	0x3e0ca019	0.13732947
217	0x3e52f1cd	0.20600052
218	0xbde0c280	-0.10974598
219	0x407543d9	3.832266
220	0x3dd3e338	0.10346073
221	0x3fba0d52	1.4535315
222	0x3e3ee649	0.18642534
223	0xbe036273	-0.12830524
224	0x3db6d5f4	0.08927527
225	0x3eb70b8f	0.35751006
226	0xbf1654d0	-0.58723164
227	0x3f63c016	0.88964975
228	0xc1001e68	-8.007423
229	0xbe2a118a	-0.16608253
230	0xbf66579f	-0.8997745
231	0x3e558f8d	0.20855542
232	0x3f65d5e4	0.89779496
233	0x3dc8d3a2	0.09805991
234	0xbd6a9eb6	-0.057280265
235	0x3e94357e	0.2894706
236	0x3eb008a0	0.3438158
237	0xbd866dd0	-0.06563914
238	0x3d4f7aa8	0.050654083
239	0xbe563cac	-0.20921582
240	0xbfbe57fd	-1.4870602
241	0xbc14a8d8	-0.009073459
242	0xbfc6346d	-1.5484749
243	0x3f347ebd	0.7050589
244	0xbfb84500	-1.4396057
245	0x3dc3d5b4	0.09562245
246	0x3eed03d0	0.4629197
247	0x3fe78455	1.808726
248	0xbe95ad79	-0.29233912
249	0x3eac4062	0.3364287
250	0xbd3790c2	-0.044815786
251	0x3d65b27c	0.05607842
252	0xbd64524d	-0.05574255
253	0x3dd4c921	0.10389925
254	0x3d73f472	0.059559293
255	0x3cbe8118	0.023254916

visible_bias f4 [16]
0	0xbf4ae5c7	-0.7925686
1	0x3fb92ab1	1.4466153
2	0x404131fd	3.018676
3	0xbf4f59f4	-0.8099663
4	0x403385c9	2.8050406
5	0x400d65db	2.2093418
6	0x40688944	3.633378
7	0x40742c5f	3.8152082
8	0x401faaa0	2.4947891
9	0xc0180fe2	-2.3759694
10	0x401d077e	2.4535823
11	0x407d7472	3.9602323
12	0x3feb66fd	1.8390805
13	0xbf91f777	-1.1403645
14	0x40472fc9	3.1122916
15	0x3f23605c	0.6381891
