data/ising2d/parameters/parameters_nH16_L4_T1.762.npz (npz, 1699 bytes, 3 tensors)

hidden_bias f4 [16]
0	0x40bc5c1b	5.8862433
1	0x40b208bd	5.5635667
2	0x40beac65	5.9585443
3	0xbebf7def	-0.37400767
4	0x40a7380a	5.2255907
5	0x40b91b8a	5.7846117
6	0x405a4f21	3.4110796
7	0xc0c5eca2	-6.185136
8	0xc102857e	-8.157591
9	0x40b3da6c	5.620413
10	0x40cdd075	6.4316964
11	0xc103b04d	-8.230542
12	0x40ee2a35	7.442652
13	0xc0a3fe81	-5.1248174
14	0x4083d1c8	4.119358
15	0x40c1e464	6.0591297

weights f4 [16, 16]
0	0x3eccde7a	0.40013486
1	0xc01146c5	-2.2699444
2	0xc0023fe5	-2.0351498
3	0x3f4228eb	0.75843686
4	0x3e0be124	0.13660103
5	0xc016ad30	-2.3543205
6	0x3e287a75	0.16452964
7	0x400a8d32	2.1648679
8	0x3f8849c8	1.0647516
9	0x3e8c6fa9	0.2742894
10	0x3f219c32	0.6312896
11	0x3eb7c36d	0.35891286
12	0xbd386067	-0.04501381
13	0x3e2594b0	0.16170001
14	0x3c3f7fed	0.011688215
15	0xbe8511ac	-0.25990045
16	0x3eb7b392	0.3587919
17	0xc0e20b15	-7.063853
18	0x3f7ffdcb	0.9999663
19	0x404c1226	3.1886077
20	0xbe6d87c7	-0.23196326
21	0xbe9bceef	-0.30431315
22	0xbf555130	-0.8332701
23	0xbe81f2c7	-0.25380537
24	0x3f19c5b8	0.6006732
25	0x3ee4860f	0.4463353
26	0xbfaa263d	-1.3292919
27	0x3febfdca	1.8436825
28	0xbfb14f17	-1.3852261
29	0xbf35eb05	-0.71061736
30	0xbd864038	-0.065552175
31	0xbf70d31c	-0.9407213
32	0x3f17d4fe	0.59309375
33	0xbfe666bd	-1.8000103
34	0x3f09472c	0.53624225
35	0x3eb1b938	0.34711623
36	0xbed7140c	-0.42007482
37	0x3f823ace	1.0174196
38	0xc0482054	-3.1269732
39	0x3fb16b65	1.3860899
40	0x3e4b6fba	0.19866839
41	0x3ecaefc6	0.39636058
42	0xbf4aac11	-0.791688
43	0x3fa67aa4	1.3006177
44	0xbec68dbe	-0.38780016
45	0xbe67fe71	-0.22655655
46	0xc0090677	-2.1410196
47	0xbfb6142f	-1.422491
48	0x3f1bb200	0.6081848
49	0xbd3ca184	-0.04605247
50	0x3e6c47a7	0.23074208
51	0x3ec136b9	0.37737063
52	0xbdb6eb3a	-0.08931585
53	0xbef2d583	-0.47428522
54	0xbfa14c7b	-1.2601465
55	0x40ecef24	7.404192
56	0x3e8aac4b	0.27084574
57	0x3e842f0b	0.2581714
58	0x3d53781b	0.051628213
59	0x3e9a03d0	0.30081034
60	0xbfb0368d	-1.3766648
61	0xbf0361f4	-0.5132134
62	0xbfb49b14	-1.4109826
63	0xbfcd07b9	-1.6017982
64	0x3eb775ad	0.35831967
65	0x3f1471e4	0.57986283
66	0x3f84f5b5	1.0387484
67	0x3ff4938d	1.9107529
68	0xbea99543	-0.3312169
69	0xc0ebab10	-7.3646317
70	0xbd491a34	-0.049097255
71	0xbf815b99	-1.0106078
72	0x3fddbca6	1.7323196
73	0xbf35143a	-0.7073399
74	0xbfa7c2c1	-1.3106309
75	0x4005fdca	2.093615
76	0xbed2507a	-0.41077024
77	0xbee9e1c5	-0.4568006
78	0xbe84551b	-0.2584618
79	0xbf79a33b	-0.97514695
80	0x3edebf21	0.43505195
81	0xbfd6f0c9	-1.6792232
82	0x3f50ed27	0.81611866
83	0x3fa60ece	1.2973268
84	0x3df2298e	0.11824332
85	0xbfdb6462	-1.7140009
86	0x3f3fbf42	0.7490121
87	0x3da0f774	0.07859698
88	0x3f48b93f	0.78407663
89	0xc01c2062	-2.4394765
90	0xc0860b82	-4.188905
91	0x3f9282c2	1.1446154
92	0x3f7b6f58	0.9821677
93	0xbe8b01ff	-0.2714996
94	0x3c4b9f72	0.012428151
95	0xbf0f5547	-0.559895
96	0x3f6fd24a	0.9368025
97	0x3fa459b4	1.2839875
98	0x3e523772	0.20528963
99	0x4020b893	2.5112655
100	0x3f5dff66	0.8671783
101	0x3f97e2a5	1.1866041
102	0xbee62f06	-0.4495775
103	0xbfce307a	-1.6108544
104	0x3f4933da	0.78594744
105	0xbe2e61dd	-0.1702952
106	0xc07a0f14	-3.9071703
107	0x3f0a35a9	0.5398813
108	0xbfc8bb04	-1.5682073
109	0x402294c8	2.540331
110	0xc09bc7de	-4.868148
111	0xc0248bde	-2.5710368
112	0xbfcfc345	-1.6231467
113	0x3f36ff25	0.7148307
114	0x3f0828b2	0.53187096
115	0x4018f2a1	2.389809
116	0xbf696a58	-0.9117789
117	0xbfe17e47	-1.7616662
118	0x401053c0	2.2551117
119	0x3fdb3eea	1.7128575
120	0x3f783ce3	0.96967906
121	0xbe70fec6	-0.23534688
122	0x3ecc5059	0.3990505
123	0x3ea872b4	0.32900012
124	0xbff4b86d	-1.9118782
125	0xbf3cf070	-0.7380438
126	0xc01f2e0b	-2.4871852
127	0xbfe5db9d	-1.7957646
128	0xc003e155	-2.0606282
129	0x3f2962ca	0.66166365
130	0xc0041a68	-2.0641117
131	0x3f5bf150	0.8591509
132	0x3f84e94f	1.03837
133	0xbffc8eb9	-1.9731055
134	0xbde1c827	-0.11024504
135	0xbdd9c102	-0.106325164
136	0x3f5696df	0.8382396
137	0xc01908a7	-2.391153
138	0x3f373b62	0.71574986
139	0x3f4542a4	0.7705481
140	0xbe9e5949	-0.30927494
141	0x3e511c52	0.2042096
142	0x3ee1945a	0.44058496
143	0xbf883635	-1.0641543
144	0xbef00c05	-0.4688417
145	0xbf2ff2d6	-0.68729913
146	0xbe1ef583	-0.15523343
147	0x3dfaa582	0.12238599
148	0xbde93b88	-0.11388308
149	0x3f101544	0.5628245
150	0xbe0b93a8	-0.13630545
151	0x3f100c9e	0.5626925
152	0x3dff6179	0.12469763
153	0xc0dd3735	-6.912989
154	0x3e5ffab2	0.21872976
155	0x3fb10589	1.3829814
156	0x3e5f6a7f	0.21817969
157	0x404cfcd7	3.2029321
158	0x3f772c5a	0.9655205
159	0xbe9511e2	-0.29115206
160	0xc0076367	-2.115442
161	0x3d5ae683	0.05344249
162	0x3e3b01bf	0.18262385
163	0x3f0a0c75	0.5392526
164	0xbed4376f	-0.41448542
165	0x3e437763	0.19088511
166	0xbdc40d17	-0.09572809
167	0xbe2baf53	-0.167661
168	0x3e85ea85	0.26155487
169	0xbe212a23	-0.1573873
170	0xbf239d5c	-0.63911986
171	0x3e902eca	0.28160697
172	0xbf8e0c23	-1.1097454
173	0x4098dc37	4.7768817
174	0xbef33f31	-0.4750915
175	0xbe01cdb8	-0.12676132
176	0xc0f3c347	-7.6175876
177	0x3ecf9ae9	0.40547875
178	0x3c30c5c4	0.0107893385
179	0x405c6957	3.4439294
180	0x3eb0e9fe	0.34553522
181	0xbe085107	-0.1331216
182	0x3e991eea	0.29906398
183	0x3e188493	0.14894323
184	0x3f2b28f9	0.66859394
185	0x3f19681f	0.599245
186	0xbe4de9af	-0.20108674
187	0x3f64f48a	0.89435637
188	0xbffc40b3	-1.9707245
189	0x3d533a4b	0.051569264
190	0x3ec53ad9	0.3852146
191	0xc00324cc	-2.049121
192	0xbdb2dcff	-0.08733558
193	0xbf28fdb5	-0.66012126
194	0xc0fd9237	-7.9240985
195	0x3f9250d5	1.1430918
196	0x3f02b07a	0.5105053
197	0xbf1f71f1	-0.62283236
198	0xbdd48146	-0.103762195
199	0x3edb2ec1	0.42809108
200	0x3fe55cd1	1.791895
201	0x3e88d14d	0.26722184
202	0x3d9d2dd0	0.07674754
203	0x3fd3060b	1.6486219
204	0x3ed96365	0.42458645
205	0x3d17812e	0.03698843
206	0xbe08cdcb	-0.13359754
207	0xbeadc8e6	-0.33942336
208	0x3eca6b61	0.3953505
209	0xc0037820	-2.0542068
210	0xc00f745e	-2.2414775
211	0x3f3b0086	0.73047674
212	0xc0067da7	-2.1014192
213	0x3f2b57f0	0.66931057
214	0xbf39287f	-0.7232742
215	0xbf40ae8b	-0.7526633
216	0x3ecc1622	0.39860636
217	0xc0191e9c	-2.3924932
218	0x3d6f954e	0.058491997
219	0x3fdc778a	1.722398
220	0xbf88cc45	-1.0687338
221	0x3c701694	0.014653821
222	0x3f198d87	0.5998158
223	0x3f86a657	1.0519513
224	0xbce4d4dc	-0.02793353
225	0x3f83c35b	1.0293993
226	0xbeb1a6c6	-0.3469755
227	0x3fb17fd1	1.3867131
228	0xc0bc72cb	-5.889013
229	0x3f3644c1	0.7119866
230	0xc05e4c6c	-3.4734144
231	0xbf3078e1	-0.68934447
232	0x3e997e04	0.29978955
233	0x3f49bb2f	0.78801244
234	0xbef1d3f0	-0.47232008
235	0x3fd1a828	1.6379442
236	0xbf4598a7	-0.77186054
237	0x401c4946	2.4419723
238	0x3f67731a	0.90410006
239	0xbfac3757	-1.3454388
240	0xc01b7df1	-2.4295619
241	0x3ecc2543	0.39872178
242	0xc0147a5c	-2.3199682
243	0x3e0e29ea	0.13883176
244	0xc025a6f3	-2.5883148
245	0x3e1e2f54	0.15447742
246	0x3d23d64c	0.03999929
247	0x401c2ad0	2.440113
248	0xbe35fee3	-0.17773013
249	0x3f7f9999	0.99843746
250	0xbf1f8408	-0.6231084
251	0x3f80648b	1.0030683
252	0xbd0f8ca2	-0.035046227
253	0x3cf9866a	0.030459601
254	0x3ddb0cb2	0.10695781
255	0x3eafc516	0.34330052

visible_bias f4 [16]
0	0x3e9ad4b2	0.302404
1	0x3fdb8087	1.7148598
2	0x400d8d2f	2.2117422
3	0xbf8592ff	-1.0435485
4	0x3fec8765	1.8478819
5	0x40037015	2.053716
6	0x3fb1e529	1.3898059
7	0x3ed3c424	0.4136058
8	0x40027a48	2.0387135
9	0x3f0f41e8	0.5595994
10	0xbf2417d5	-0.64098865
11	0x3f5ca961	0.8619595
12	0x3fa68053	1.3007911
13	0x402c18ed	2.6890213
14	0x3fd80517	1.6876553
15	0x3f9da467	1.2315797
