data/ising2d/parameters/parameters_nH4_L4_T2.016.npz (npz, 896 bytes, 3 tensors)

hidden_bias f4 [4]
20.837397 14.948983 24.303526 -3.3808405
00000000: fdb2 a641 092f 6f41 9f6d c241 b15f 58c0

weights f4 [16, 4]
-1.8872763 -2.1330402 -1.6657536 2.3021727 -0.56438386 -2.3654025 -3.0646856 2.103974
3.9131436 5.857423 -16.082386 2.0657032 -2.5250666 -0.7679332 -2.4972591 2.026951
-1.6583146 -3.081778 -1.1693491 2.4883938 -0.7076262 -3.1864557 -2.1336496 2.5368762
-0.6412623 -2.3641756 -2.9045033 2.2611098 -1.8776528 -2.298226 -1.5641686 2.2687545
-2.6703131 -3.0697134 -0.20129567 2.4492831 -1.5908763 -3.20596 -1.1578807 2.4270763
-1.7116416 -2.358276 -1.7760539 2.1348724 -3.1108313 -2.1228123 -0.56390345 2.3302739
-3.0965033 -1.9366763 -0.67408806 2.2499514 -1.653379 -2.396626 -1.691136 2.2430773
-2.287902 -0.96002 -2.4533062 2.071205 -11.342374 6.706872 -1.532517 2.269367
00000000: 4592 f1bf bb83 08c0 6a37 d5bf cc56 1340
00000010: 767b 10bf c162 17c0 cf23 44c0 83a7 0640
00000020: f270 7a40 0270 bb40 baa8 80c1 7b34 0440
00000030: b19a 21c0 4597 44bf 18d3 1fc0 91b9 0140
00000040: a743 d4bf da3b 45c0 3bad 95bf d841 1f40
00000050: fe26 35bf e4ee 4bc0 b78d 08c0 2e5c 2240
00000060: c429 24bf a74e 17c0 62e3 39c0 06b6 1040
00000070: ed56 f0bf 2316 13c0 ad36 c8bf 4633 1140
00000080: 69e6 2ac0 2f76 44c0 7420 4ebe 0ec1 1c40
00000090: d6a1 cbbf 732e 4dc0 6f35 94bf 3855 1b40
000000a0: 1217 dbbf feed 16c0 bc55 e3bf c0a1 0840
000000b0: dc17 47c0 28dc 07c0 fa5b 10bf 3523 1540
000000c0: 1c2d 46c0 02e5 f7bf 0991 2cbf 34ff 0f40
000000d0: eca1 d3bf 5262 19c0 2577 d8bf 948e 0f40
000000e0: fd6c 12c0 dfc3 75bf f802 1dc0 9f8e 0440
000000f0: 5d7a 35c1 b29e d640 8429 c4bf 4f3d 1140

visible_bias f4 [16]
1.4786206 1.8164767 2.264951 1.7208608 1.6480488 1.6568502 1.6464485 1.5864385
1.6650516 1.7366635 1.7738696 1.5340298 1.583438 1.6048416 1.6084422 1.9749029
00000000: 7143 bd3f 4f82 e83f f5f4 1040 2b45 dc3f
00000010: 43f3 d23f ab13 d43f d3be d23f 6b10 cb3f
00000020: 6920 d53f fd4a de3f 290e e33f 175b c43f
00000030: 19ae ca3f 736b cd3f 6fe1 cd3f 9ec9 fc3f
