data/ising2d/parameters/parameters_nH16_L4_T2.269.npz (npz, 1701 bytes, 3 tensors)

hidden_bias f4 [16]
00000000: 5856 bb40 db3c c740 ff20 cf40 10fb 58c0
00000010: f99e aa40 8a88 b040 0a63 6a40 8ce0 bfc0
00000020: 2163 86c0 c46e 9040 6941 a340 e9f4 77c0
00000030: 00eb 6d40 5210 a7c0 1ba0 4a40 21f2 8240
5.85429 6.2261786 6.472778 -3.3903236 5.331906 5.5166674 3.6622949 -5.9961605
-4.1996007 4.513521 5.1017346 -3.8743231 3.7174683 -5.220742 3.166022 4.0920568

weights f4 [16, 16]
00000000: 8e53 cbbd f598 d4bf b0b5 2abf 3f3b e4bb
00000010: 7b4d ecbe f8df 00c0 3b2e 623f bd30 c13f
00000020: 3eca 1d40 2fb7 083d bfc0 513f 9904 6ebe
00000030: 9b4d a93e 51f8 33be 4322 abbf 6ab3 263e
00000040: 685f d23e 49db fdc0 30f3 4abd ba64 1e40
00000050: 6967 e93d 6ca8 9e3f aaea 67bf 83fb 723e
00000060: c59c 383f eb34 a03e c33b fb3c 10ac 723e
00000070: 99d1 5fbe ecf7 583e 15f9 5bbe bfe1 a8be
00000080: 6a75 a53d de1c 85bf 0a01 453e 8bd0 1d3f
00000090: 1f0e 06be 2919 9b3e 0c56 7ac0 9390 453f
000000a0: e6c4 833e dbe1 033d 0872 c6bf 0dba bb3e
000000b0: 42ba 133f 6ea3 b3be e46a d7bf e3ab 76be
000000c0: d0d5 763e 7de6 6f3e a507 00bd fb72 acbe
000000d0: 610a 183e 2edc f6be a869 66bf 191f d440
000000e0: 6e41 7a3d 96ea cc3e bc91 4a3f 6892 003e
000000f0: fd4d 24bd 61cf 5bbe f53e 08c0 4a5c dfbf
00000100: cadc 71be 64a2 0f3e b338 e1be ebde 3740
00000110: 1417 5dbe 4a26 0dc1 ed58 8dbd 6447 b8be
00000120: d402 6dbe c78c 16bf b531 fabe 9833 943e
00000130: da1e 973e 53c1 de3e 1fec 0e3e 00f5 12bf
00000140: 8624 65bd f204 febf bae1 36be b35b 8d3d
00000150: 0f18 16be 08c6 dcbf 0a07 c73e 8be0 f83d
00000160: e49f 9fbe 5381 56bf ae0a 05c0 088f 88be
00000170: 5a68 513e 9bf8 a53f 7528 7cbe 24a0 843e
00000180: d282 923e f03f cf3e 87bc f93e 4a36 a23e
00000190: 57c5 ba3e 771d da3e 7cd4 97be 6d2f f33c
000001a0: 9230 ba3f 9cce 0dbd 1713 cdc0 b5ce 753d
000001b0: d832 0cc0 0db0 0bbe a834 a7bf cccd 1fbf
000001c0: ced1 27bf 040d 2a3e f232 603e 4245 73bd
000001d0: 2487 adbe 3ef5 b0bf bef0 de3e 6757 263f
000001e0: 84a0 953e bb34 9bbe 72a3 c2bf 0f6a 80bd
000001f0: 0f85 c5be 4356 4cbe 806a 653d 8126 8dc0
00000200: 3758 e6bf db08 233e 7dcd e8bf 4895 293f
00000210: 617d 95bd cd4f bdbf 7201 c53c 9c59 373d
00000220: cc1a 803d 6a9e d4bf 1179 d33c 8f51 6dbe
00000230: abf3 063e e1a6 c43e d8eb a43d 5094 a23d
00000240: 5207 973e 0480 82be 6cb3 40be fd03 2dbf
00000250: 0c9d 34bd 30b1 1d3f b668 3bbe 2a73 873e
00000260: 4ff8 103e 574c dac0 09a2 9d3d 7917 603f
00000270: 8dcd 173e 7d28 bc40 a60d 47bf e4fb 183d
00000280: 95d6 4cbf 334e 963e 9990 143e b512 a53d
00000290: a933 a4bf b14d 02be 9b9a edbe 452f 48bd
000002a0: 2b75 0d3f 10a1 f03d 2428 24be 5380 d1bd
000002b0: 56de 8bc0 6e4f 1840 7381 1cbe 4745 d03e
000002c0: 8b20 f2c0 9da3 9b3e e341 9a3e f836 af3f
000002d0: 8088 223f 3251 6f3f dc50 8dbd 8ebd db3d
000002e0: b3c2 853e ddb3 55be 10ad b13e 297d 233f
000002f0: 2d0c babf 1c82 4f3e 483e 493e 4b17 d5bf
00000300: 61f6 f8bd ac36 943e a685 06c1 5e22 b3be
00000310: cd7f 3b3e 4d9a 803e 52fe 983d 8603 90bd
00000320: 24dd 3f40 14af 143d db03 cc3d 75b5 fa3f
00000330: 8813 cb3d e914 eabe 8cae f43d 84b2 9dbd
00000340: 67cc b13e d007 ebbf 0f9f 84bf 46eb 563e
00000350: afb6 cabf 31be a03e 0852 8f3e eda1 53bc
00000360: 1129 2bbe 93ac c6bf afd2 89bc a643 2140
00000370: 7a42 61b9 c66e bb3c d064 103e c6bd 87bd
00000380: f4f8 ebbe 2437 a13e c322 8a3e 8bb4 cc3c
00000390: a254 e3c0 32a0 803e afcc 20c0 3d11 743d
000003a0: c673 6ebd f968 673f ef7c 19be 110c a93f
000003b0: 1a77 42bf 2cc6 2b3f ed1b 4f3e 2a0a b43e
000003c0: 94b0 febf d9d4 1dbe 96a4 01c0 423e fdbe
000003d0: fb29 f0bf 7238 3bbe cc75 84be 7b83 1040
000003e0: 202b 1ebe 5de8 f13e cdac 9abe b73a 45be
000003f0: e2f8 4a3e 0819 d73e d7a9 293f 8eb4 113e
-0.09928046 -1.6609179 -0.66683483 -0.0069650705 -0.46152863 -2.01367 0.8835179 1.5092999
2.465469 0.033377822 0.8193473 -0.23243941 0.3306702 -0.17575194 -1.3369831 0.16279379
0.41088414 -7.933018 -0.049548328 2.4748979 0.11396677 1.2395148 -0.90592444 0.23728757
0.7211421 0.31290373 0.030668145 0.23698449 -0.21857299 0.21188325 -0.21481736 -0.3298473
0.080790356 -1.0399435 0.19238678 0.61646336 -0.13091324 0.30292633 -3.911502 0.7717373
0.2573616 0.032197814 -1.550355 0.36665383 0.5770608 -0.35085624 -1.6829495 -0.24089007
0.24105 0.23427768 -0.03125729 -0.33681473 0.14847709 -0.4821486 -0.9000497 6.628796
0.061097555 0.40022725 0.79128623 0.1255585 -0.040113438 -0.21465828 -2.1288426 -1.7450039
-0.2361938 0.14026791 -0.4398857 2.8729808 -0.21590835 -8.821848 -0.06901727 -0.35991967
-0.2314561 -0.5880856 -0.48866048 0.28945613 0.29515725 0.4350687 0.1395726 -0.5740509
-0.055943035 -1.9845259 -0.17859545 0.06902256 -0.14657615 -1.7247934 0.38872558 0.12152203
-0.31176674 -0.83791083 -2.0787768 -0.26671624 0.20449963 1.2966493 -0.24624808 0.25903428
0.28615433 0.40478468 0.48776647 0.31682044 0.36478683 0.42600605 -0.296543 0.0296857
1.4546072 -0.034620866 -6.4085803 0.060011584 -2.1906033 -0.13641377 -1.3062944 -0.62423396
-0.6555451 0.16606528 0.21894434 -0.05939222 -0.33892167 -1.3824842 0.43543047 0.64977115
0.29224026 -0.30313668 -1.520613 -0.06270229 -0.38578078 -0.19954781 0.05600977 -4.41095
-1.7995671 0.15921347 -1.818771 0.6624341 -0.07299305 -1.4789978 0.02404854 0.044763193
0.06255111 -1.6610844 0.025814565 -0.23175643 0.1317889 0.38408569 0.08052796 0.079384446
0.29497772 -0.25488293 -0.18818444 -0.6758421 -0.044095084 0.6159849 -0.18301663 0.2645505
0.14157222 -6.821819 0.076969214 0.87535816 0.14824505 5.8799424 -0.777552 0.037349597
-0.80014926 0.29356536 0.14508285 0.08060209 -1.2828265 -0.1272495 -0.46407017 -0.048873205
0.5525691 0.1174947 -0.16030937 -0.10229554 -4.3708906 2.379848 -0.15283756 0.40677854
-7.5664725 0.30398265 0.30128393 1.368865 0.6348953 0.9348327 -0.06900188 0.10729514
0.26125106 -0.20869394 0.3470235 0.63862854 -1.4534966 0.20264477 0.19652665 -1.6647733
-0.12156368 0.2894796 -8.407629 -0.34987158 0.18310471 0.25117722 0.07470383 -0.07031922
2.9978724 0.03629978 0.09961673 1.9586626 0.09915835 -0.45719078 0.11947355 -0.07700065
0.3472626 -1.8361759 -1.0361041 0.20988187 -1.5837001 0.31395105 0.27992272 -0.012917024
-0.16714884 -1.5521415 -0.016824095 2.519754 -0.00021482437 0.02287997 0.14100957 -0.06627993
-0.46088374 0.3148738 0.26979646 0.024988433 -7.104081 0.2512222 -2.512493 0.059586752
-0.05821588 0.9039455 -0.14989065 1.3206807 -0.75962985 0.6709926 0.20225497 0.35164005
-1.9897637 -0.15413226 -2.0256705 -0.4946156 -1.8762811 -0.18283251 -0.25871122 2.258025
-0.15446138 0.47247592 -0.30209962 -0.19260679 0.19821504 0.42011285 0.6627478 0.14229032

visible_bias f4 [16]
00000000: 7a5b 423e 414a e03f dcf8 3240 7de1 bbbf
00000010: db54 5f40 7ae0 2d40 7777 5a40 ae6e 6940
00000020: b174 2c40 9609 f93b 693c e23f e0f4 2b40
00000030: 3549 d13f 2fd1 a03f e49a 3840 bd47 d53f
0.18980208 1.752266 2.7964392 -1.4678189 3.4895542 2.716826 3.4135416 3.6473804
2.6946223 0.0076000197 1.7674686 2.686821 1.6350466 1.2563838 2.8844538 1.6662518
