data/ising2d/parameters/parameters_nH16_L4_T2.016.npz (npz, 1693 bytes, 3 tensors)

hidden_bias f4 [16]
0	0x40bc56ed	5.885611
1	0x40be004e	5.937537
2	0x40ce7d78	6.452816
3	0xc047b615	-3.1204884
4	0x40a0f590	5.029976
5	0x40b553ea	5.6664934
6	0x404b26aa	3.1742349
7	0xc0c4e977	-6.153499
8	0xc0d3f292	-6.6233606
9	0x40a4265f	5.129684
10	0x4083b66a	4.1160173
11	0xc0d49560	-6.6432343
12	0x40d53a76	6.6633863
13	0xc09c7389	-4.8891034
14	0x4065ee73	3.5926788
15	0x40afa3b2	5.4887323

weights f4 [16, 16]
0	0x3ed513a4	0.41616547
1	0xbff8e074	-1.9443498
2	0xbfeef402	-1.8668215
3	0x3ef1b235	0.47206274
4	0x3e2d07a5	0.16897447
5	0xbff5aeb3	-1.9193939
6	0x3dd620b8	0.10455459
7	0x4008abdd	2.1354897
8	0x3f17f539	0.59358555
9	0x3e9e2528	0.30887723
10	0x3e256f27	0.16155683
11	0x3e439e91	0.19103457
12	0x3d0eea94	0.03489168
13	0x3e83f505	0.25772873
14	0xbdf5f3d1	-0.12009395
15	0x3e4a594e	0.1976063
16	0x3eae7b6f	0.34078547
17	0xc0f6eeec	-7.7166653
18	0x3f0641cc	0.5244415
19	0x3fc3ad4e	1.5287263
20	0x3f066bdf	0.5250835
21	0x3e50f4e6	0.20405921
22	0xbf9775c7	-1.1832818
23	0xbeb63ef5	-0.35594907
24	0x3fe93bd7	1.8221387
25	0x3eeebf7f	0.46630475
26	0xbfac35ed	-1.3453957
27	0x3ff68528	1.9259386
28	0x3ef684fb	0.4814833
29	0xbf15a8f4	-0.58460927
30	0x3f7f6ecf	0.99778455
31	0xbfbf037c	-1.4922938
32	0x3ef41e60	0.47679424
33	0xbf93d181	-1.154831
34	0x3ea25a1e	0.3170938
35	0x3e9fc30b	0.31203493
36	0xbf25fb60	-0.6483669
37	0x3e27cf8d	0.16387768
38	0xc057f7aa	-3.3744912
39	0x3fa1c0b3	1.2636932
40	0x3ee1524b	0.44008097
41	0x3e2fe831	0.17178418
42	0xbf93a117	-1.1533536
43	0x3f0622f0	0.5239706
44	0x3dae58e1	0.08513046
45	0x3d5d7142	0.05406309
46	0xbfa3713e	-1.2768934
47	0xbf3d6ce6	-0.7399429
48	0xbe3646b2	-0.17800406
49	0xbe2bd9d1	-0.16782309
50	0x3e4971ae	0.19672272
51	0xbe440031	-0.19140698
52	0xbd8c523c	-0.068516225
53	0xbec9a72a	-0.3938535
54	0xbf809d92	-1.0048087
55	0x40f51115	7.658335
56	0xbec55405	-0.38540664
57	0x3e475379	0.19465436
58	0x3e3c6645	0.18398388
59	0xbcd8742c	-0.026422583
60	0x3e0051c2	0.12531188
61	0x3de2433e	0.11047982
62	0xbfc12d96	-1.5092037
63	0xbfe78e48	-1.8090296
64	0x3eee2dc1	0.46519282
65	0x3f04ef5c	0.51927733
66	0x3ebb2584	0.3655206
67	0x40104220	2.254036
68	0x3e31549f	0.17317437
69	0xc102a96d	-8.166364
70	0x3e7bc8f0	0.2458837
71	0xbf0a0f38	-0.5392947
72	0x3fc7c564	1.5607114
73	0xbdf91de2	-0.12163903
74	0xbeac0102	-0.3359452
75	0x3f78eef5	0.9723962
76	0xbfcb1735	-1.5866457
77	0x3894302c	7.066163e-05
78	0x3e8631db	0.26209912
79	0xbf90bbcf	-1.1307315
80	0xbdab6d4c	-0.08370456
81	0xbfd0ee38	-1.6322699
82	0x3e923790	0.28558016
83	0x3e514338	0.20435798
84	0xbe78ee81	-0.24309732
85	0xbff2df30	-1.8974361
86	0x3f4a6fc6	0.790768
87	0x3deb92d1	0.115026124
88	0x3e18f90d	0.14938755
89	0xc00f8a04	-2.2427988
90	0xc03fa2e2	-2.9943166
91	0x3f54c7a1	0.8311711
92	0x3ee2c692	0.44292122
93	0xbe2c7c5e	-0.16844317
94	0x3e233d1a	0.15941277
95	0xbb1eaf0c	-0.0024213223
96	0x3f1f8e79	0.6232677
97	0x3f9f69b1	1.245413
98	0x3eb054a1	0.34439567
99	0x400c55da	2.19274
100	0x3e642380	0.22279167
101	0x3f977c96	1.1834896
102	0xbef4e6cd	-0.47832337
103	0xbf997b1e	-1.1990697
104	0x3f91b737	1.1384038
105	0x3ed647c1	0.4185162
106	0xc0941f0c	-4.62879
107	0x3f9bad46	1.2162254
108	0xbfbea115	-1.4892908
109	0x3f8d172d	1.1022698
110	0xc0869e0e	-4.206794
111	0xbf837af6	-1.02719
112	0xbf9a8052	-1.207041
113	0x3f5558ff	0.8333892
114	0x3f43bdee	0.76461685
115	0x3fdfb9d6	1.7478588
116	0xbd882244	-0.06647161
117	0xbf8cfb7e	-1.1014249
118	0x3fa5c66a	1.2951176
119	0x3fa30e22	1.2738688
120	0x3f0e8296	0.5566801
121	0x3e668efc	0.22515482
122	0x3e1e61f3	0.15467052
123	0x3f32ea4b	0.6988875
124	0xbfc74b35	-1.5569826
125	0xbf3245d2	-0.6963779
126	0xbffba1e1	-1.9658777
127	0xc023901a	-2.5556703
128	0xc00267a3	-2.0375755
129	0x3e48779d	0.19576879
130	0xbffe743c	-1.9879222
131	0x3ec8748a	0.39151412
132	0x3e039ab4	0.12851983
133	0xbff7f9a1	-1.9373056
134	0xbe453223	-0.19257407
135	0xbe81a0d7	-0.25318024
136	0x3e020243	0.12696175
137	0xc0011af2	-2.0172696
138	0x3f2cb7ab	0.67467755
139	0x3f14cd04	0.5812533
140	0xbefc15f2	-0.49235493
141	0xbe917a40	-0.28413582
142	0xbe9c7105	-0.30554977
143	0x3ec062c2	0.37575346
144	0x3c8f3e23	0.017485684
145	0xbf01cf6f	-0.50707144
146	0xbed857e6	-0.4225456
147	0x3eeb14a9	0.459142
148	0x3e3b3b57	0.18284355
149	0x3e91d2d4	0.28481162
150	0x3ddf27c4	0.108962566
151	0x3eabbb67	0.33541414
152	0xbf2c2443	-0.6724283
153	0xc1003f18	-8.015404
154	0x3f31562d	0.6927212
155	0x3ffdb961	1.9822198
156	0xbf035b1b	-0.5131089
157	0x4043d9b8	3.0601635
158	0xbf12eefb	-0.57395905
159	0x3efd42fa	0.49465162
160	0xbfdd68c5	-1.7297598
161	0xbe68030b	-0.22657411
162	0x3e5d3226	0.21601161
163	0x3ea7a8dc	0.32746017
164	0xbf42c6b2	-0.76084435
165	0x3e31aff9	0.17352284
166	0x3e259f07	0.16173945
167	0xbe2e504e	-0.17022821
168	0x3e00a237	0.1256188
169	0x3eff6525	0.49881855
170	0xbf0a86d4	-0.5411198
171	0x3ee6f48f	0.45108458
172	0xbf1a8a10	-0.60366917
173	0x40a45222	5.135026
174	0xbf59b34d	-0.85039216
175	0xbe12a6f3	-0.14321499
176	0xc0f6438e	-7.6957464
177	0x3e868c0f	0.2627873
178	0x3f011543	0.5042307
179	0x400cc0ca	2.199267
180	0x3f2a312c	0.6648128
181	0x3f5296f3	0.8226158
182	0xbeabe99d	-0.3357667
183	0xbe70cf84	-0.23516661
184	0x3f8fb93a	1.1228402
185	0x3ebdde49	0.37083653
186	0x3e2fe913	0.17178755
187	0x3f646b0e	0.8922585
188	0xc00da318	-2.2130795
189	0x3eed0def	0.46299693
190	0x3f23f758	0.6404929
191	0xbf927e55	-1.1444803
192	0xbd5c8f33	-0.053847503
193	0x3e1e1089	0.15435995
194	0xc109a945	-8.603826
195	0x3fb5ffc6	1.4218681
196	0x3e9a2c73	0.30112037
197	0x3e960aaa	0.2930501
198	0xbde89b32	-0.11357726
199	0x3eb6ebeb	0.35726866
200	0x3fc18e45	1.5121542
201	0x3ed693df	0.41909692
202	0x3da9144b	0.08255824
203	0x3f010b37	0.5040774
204	0xbee7c83a	-0.45269948
205	0x3ccd31e8	0.025048211
206	0x3e3cd155	0.18439229
207	0xbf2e1631	-0.6800261
208	0x3f1cdd45	0.6127513
209	0xbffc20ed	-1.9697548
210	0xbfdbfaa4	-1.7185864
211	0x3f55c3c1	0.8350182
212	0xbffbc6d0	-1.9670048
213	0x3f2623f4	0.6489861
214	0x3e1541df	0.14575909
215	0x3c248291	0.010040895
216	0x3f5410ac	0.8283794
217	0xc005bc3f	-2.0896146
218	0x3e4777a5	0.19479235
219	0x3ce2015c	0.027588539
220	0xbf22b6c9	-0.6356016
221	0xbde4976c	-0.11161694
222	0x3e760abf	0.24027537
223	0xbd1f6b93	-0.03892095
224	0x3d1d0452	0.0383342
225	0x3e866ae6	0.26253432
226	0xbdc4fde5	-0.09618739
227	0x3f8bc037	1.0918034
228	0xc0e4c18d	-7.148627
229	0x3e3ed1c9	0.18634714
230	0xc01445c0	-2.3167572
231	0xbe96b6bb	-0.29436287
232	0x3f34e534	0.70662236
233	0x3eb55b46	0.354212
234	0x3d387ad0	0.045038998
235	0x3ec32bbd	0.38119307
236	0xbf47bbe1	-0.78021055
237	0x3fe4f4e6	1.7887237
238	0x3f5deb63	0.86687297
239	0xbed7bfc1	-0.42138484
240	0xc0115664	-2.2708979
241	0x3c1e3760	0.009656757
242	0xc004a67e	-2.0726619
243	0xbdc265ee	-0.09492098
244	0xc011c93c	-2.2779074
245	0xbdab99b6	-0.083789274
246	0x3de9a552	0.114084855
247	0x400bb633	2.1829956
248	0xbe9e2867	-0.308902
249	0x3daedc77	0.08538144
250	0xbd9e6b8d	-0.077353574
251	0x3ea99952	0.33124787
252	0x3d3a7203	0.045518886
253	0xbec3dea7	-0.38255808
254	0xbdd0c6c3	-0.10194161
255	0x3e5db3a4	0.21650559

visible_bias f4 [16]
0	0x3ebc36bc	0.3676051
1	0x40020793	2.0317123
2	0x4016be51	2.355366
3	0xbfa43f83	-1.2831882
4	0x40246dcc	2.5692015
5	0x40459ff3	3.0878875
6	0x3fc0d28b	1.5064253
7	0x3f5e8e48	0.86935854
8	0x405dceda	3.4657502
9	0x3f99e0dd	1.2021748
10	0xbf6a9610	-0.9163523
11	0x3fd71291	1.6802541
12	0x4010e492	2.2639508
13	0x4020deb2	2.5135922
14	0x4018f205	2.3897717
15	0x4010e14b	2.2637508
