data/ising2d/parameters/parameters_nH4_L4_T1.508.npz (npz, 897 bytes, 3 tensors)

hidden_bias f4 [4]
000000 ba 45 db 41 24 69 d9 41 39 d2 c4 41 85 fa 01 c1
       27.409046 27.176338 24.602648 -8.123662

weights f4 [16, 4]
000000 f3 e4 56 bf cb 08 44 c0 bf c3 34 c0 8b b6 7d 40
       -0.839431 -3.0630367 -2.8244474 3.9642665
000010 3d 8e eb be c9 5d 7d c0 28 3e 26 c0 76 27 82 40
       -0.46006957 -3.9588492 -2.5975437 4.067317
000020 6b 69 08 c0 57 2e 17 c0 5f b3 0e c0 6d f5 7f 40
       -2.1314342 -2.3622034 -2.229698 3.9993546
000030 6e fe 20 c0 a3 c8 ca bf bd 72 20 c0 33 ce 7c 40
       -2.5155292 -1.584248 -2.507003 3.9500854
000040 72 bf 57 bf 1e 02 27 c0 78 d3 55 c0 eb fa 68 40
       -0.842765 -2.6095042 -3.341032 3.6403148
000050 7d 72 a2 bf 32 52 47 c0 f7 e6 1d c0 bd 29 81 40
       -1.2691189 -3.1143918 -2.467222 4.036345
000060 20 e3 35 c0 8b e3 aa bf b5 79 1d c0 b5 ed 79 40
       -2.8419876 -1.3350691 -2.4605534 3.9051335
000070 16 eb 31 c0 70 ee 54 bf 4c 04 46 c0 ad 12 78 40
       -2.7799735 -0.83176327 -3.0940123 3.8761399
000080 bb 59 90 bf f2 b3 1a c0 0f 00 66 c0 86 81 5b 40
       -1.1277384 -2.417233 -3.5937536 3.4297805
000090 dc 57 f3 bf 80 6c 10 c0 86 05 1f c0 f9 c6 81 40
       -1.9011188 -2.2566223 -2.4847121 4.0555387
0000a0 8d d6 7b c0 0d 75 36 3e 6a 82 45 c0 92 68 87 40
       -3.9349701 0.17818089 -3.0860848 4.231515
0000b0 28 5c 5c c0 fe 0e 21 3e c3 df 6f c0 d9 73 76 40
       -3.4431248 0.15728375 -3.7480323 3.8508208
0000c0 e9 9f 61 bf f2 88 40 c0 07 d1 46 c0 62 cc 63 40
       -0.8813463 -3.0083585 -3.106508 3.5593495
0000d0 b3 64 6d bf 92 72 5c c0 c6 16 24 c0 f5 04 78 40
       -0.9273178 -3.4444928 -2.56389 3.8753026
0000e0 a3 b4 32 c0 75 7a a2 bf 2b d7 29 c0 8b d4 7c 40
       -2.7922752 -1.2693621 -2.6537578 3.9504726
0000f0 46 3b 47 c0 82 7a 16 bf 31 6b 49 c0 14 c1 77 40
       -3.1129928 -0.5878068 -3.1471674 3.8711596

visible_bias f4 [16]
000000 8f 15 bd 3f 7f 6c dc 3f 1b c9 b6 3f 45 ab ae 3f
       1.4772204 1.722061 1.4280123 1.3646017
000010 e7 b7 d3 3f d5 ae c8 3f c5 95 b3 3f 25 e9 b8 3f
       1.6540498 1.5678355 1.4030081 1.444615
000020 bf d2 f5 3f a7 ee a9 3f ab 22 bd 3f 1d e2 dd 3f
       1.920494 1.3275956 1.4776205 1.7334629
000030 9b dc ec 3f af 72 dd 3f 45 c7 bb 3f 53 ff c3 3f
       1.8504823 1.7300624 1.4670187 1.5312294
