data/ising2d/parameters/parameters_nH4_L4_T1.762.npz (npz, 897 bytes, 3 tensors)

hidden_bias f4 [4]
19.48943 25.12103 20.03023 -6.4475055
00000000: 5aea 9b41 dff7 c841 e93d a041 f751 cec0

weights f4 [16, 4]
-2.6515908 -2.5899677 -0.6047548 2.9452796 -0.23727104 -2.2630272 -3.2447088 3.1151345
-0.21307467 -1.6823874 -4.039341 3.0693135 -2.3460126 -1.253783 -2.1946056 2.9486778
0.5433379 -13.200519 6.3706927 2.6254694 1.6546274 -4.310805 -3.4152935 2.9069788
0.67328465 -2.6626782 -4.108989 2.988119 -1.400741 -2.599504 -2.031541 2.7594666
-3.7047706 -2.4545286 0.3826571 2.9728203 -1.4912361 -1.6723017 -2.4487019 3.1064963
-1.3664598 -1.1791301 -3.2212422 3.0661955 -3.224179 -1.2445047 -1.1712669 3.1015568
-5.0216746 -1.1886218 0.3958097 3.279916 -2.1451333 -0.92333037 -2.5412383 3.2655137
-1.795072 -0.7993835 -3.1075475 3.3295784 -4.026065 -0.332884 -1.3326325 3.3055406
00000000: aab3 29c0 08c2 25c0 36d1 1abf 767f 3c40
00000010: 2ef7 72be 70d5 10c0 4fa9 4fc0 5d5e 4740
00000020: 3f30 5abe 7858 d7bf 4842 81c0 a26f 4440
00000030: 1225 16c0 f67b a0bf 6b74 0cc0 23b7 3c40
00000040: 3118 0b3f 5335 53c1 b7dc cb40 b107 2840
00000050: d5ca d33f 1df2 89c0 2b94 5ac0 f10b 3a40
00000060: 625c 2c3f 5269 2ac0 d67c 83c0 573d 3f40
00000070: 7b4b b3bf 465e 26c0 c504 02c0 1a9b 3040
00000080: f61a 6dc0 ff16 1dc0 a2eb c33e b042 3e40
00000090: d3e0 bebf fb0d d6bf 88b7 1cc0 d6d0 4640
000000a0: 28e8 aebf bced 96bf d528 4ec0 8c3c 4440
000000b0: f358 4ec0 ee4b 9fbf 13ec 95bf e87f 4640
000000c0: 8fb1 a0c0 c224 98bf 92a7 ca3e 25ea 5140
000000d0: dd49 09c0 615f 6cbf a6a3 22c0 2dfe 5040
000000e0: ebc4 e5bf 66a4 4cbf 0fe2 46c0 d017 5540
000000f0: 86d5 80c0 c66f aabe b493 aabf fa8d 5340

visible_bias f4 [16]
1.4044083 1.3081924 1.5584339 1.4452151 1.9246947 1.6740531 1.6506492 1.613643
1.3594009 1.1581675 1.3485991 1.130963 1.2961904 1.1445652 1.1167606 1.17357
00000000: a7c3 b33f d972 a73f c37a c73f cffc b83f
00000010: 655c f63f 5f47 d63f 7948 d33f db8b ce3f
00000020: d900 ae3f d53e 943f e59e ac3f 65c3 903f
00000030: 91e9 a53f 1d81 923f 03f2 8e3f 8b37 963f
