data/ising2d/parameters/parameters_nH16_L4_T1.508.npz (npz, 1690 bytes, 3 tensors)

hidden_bias f4 [16]
0	0x411a05d2	9.626421
1	0x40da7053	6.8262115
2	0x40a45c1b	5.1362433
3	0xbfadda13	-1.3582176
4	0x4100073a	8.001764
5	0x40e4c9a3	7.149614
6	0x4043b443	3.0578773
7	0xc097ad77	-4.739925
8	0xc10068a2	-8.025545
9	0x405761f5	3.3653538
10	0x41146887	9.275519
11	0xc10c33f9	-8.762689
12	0x410dea07	8.869636
13	0xc05d3e76	-3.4569373
14	0x40b2e829	5.59084
15	0x4104dda5	8.304112

weights f4 [16, 16]
0	0x3efbff8a	0.49218398
1	0xc030cf09	-2.7626364
2	0xc005d336	-2.0910163
3	0x401b8b36	2.4303718
4	0xbf3ff25f	-0.74979204
5	0xc0562285	-3.345857
6	0xbf813478	-1.0094137
7	0x3f868d2a	1.051183
8	0x3ffa728b	1.9566206
9	0x3fb911cd	1.4458557
10	0x3e6861cf	0.22693561
11	0x3e03533f	0.12824725
12	0x3f7b409a	0.9814545
13	0xbf3e8140	-0.7441597
14	0x3e8b29c2	0.27180296
15	0xbf72330b	-0.94609135
16	0x3f804815	1.0021998
17	0xc0ac6d16	-5.388316
18	0x3e704b08	0.23466122
19	0x40255774	2.5834627
20	0xbe21d84e	-0.1580517
21	0xbd7691e1	-0.060197715
22	0xbfd89767	-1.6921204
23	0xbe4ce954	-0.20010883
24	0x40091a4d	2.1422303
25	0xbfc70458	-1.5548201
26	0xbf2f104b	-0.68384236
27	0x3fb3fcf6	1.4061573
28	0x3ecc6ff3	0.3992916
29	0xbf238e0a	-0.6388861
30	0xbe297ee4	-0.16552311
31	0xbeaee63a	-0.34160024
32	0x3f9a6afa	1.2063897
33	0xbff39f84	-1.9033055
34	0x3f15a049	0.584477
35	0x3ff12c76	1.8841693
36	0xbfd97b22	-1.6990702
37	0x3f9f1112	1.2427084
38	0xc015618a	-2.3340783
39	0x3f1f87f9	0.6231685
40	0x3ef277a2	0.47356898
41	0x3f3db278	0.74100447
42	0xbfdcaa12	-1.7239401
43	0x3f7c7e27	0.98629993
44	0xbefc776b	-0.4930986
45	0x3f2c677c	0.67345405
46	0xc03065bb	-2.7562091
47	0xbf57999d	-0.8421877
48	0x3f0d973c	0.5530889
49	0xbf8a9cd4	-1.082911
50	0xbf05d681	-0.5228043
51	0x401c2418	2.439703
52	0xc01893b4	-2.384015
53	0xbfa60c90	-1.2972584
54	0xbfb7bb2b	-1.4353994
55	0x40503ba5	3.2536404
56	0x3f5a9cf0	0.8539572
57	0x400bdc0b	2.1853054
58	0x3fb01182	1.3755343
59	0x3f0094c8	0.5022702
60	0xbe55a783	-0.20864682
61	0xbf9479ae	-1.1599634
62	0xbfec92f9	-1.8482352
63	0xc013f655	-2.31191
64	0x3f00d1ba	0.5032002
65	0x3ecf849c	0.4053086
66	0x3f1c6da5	0.61104804
67	0x3ffcfbce	1.9764345
68	0xbf00ba34	-0.50284123
69	0xc0a06455	-5.0122476
70	0x3f81c240	1.0137405
71	0x3eab1700	0.33415985
72	0x3fd7131f	1.680271
73	0xc009e71d	-2.154731
74	0xbed97ba4	-0.42477143
75	0x3fac8945	1.3479391
76	0xbf1e13f1	-0.6174918
77	0xbd85ea98	-0.06538886
78	0xbf8413b2	-1.031851
79	0xbde31a6b	-0.11089023
80	0xbddee69d	-0.1088383
81	0xc00bffd4	-2.1874895
82	0x3fbfd869	1.4987918
83	0x400e21be	2.2208095
84	0xbe0d80cb	-0.13818662
85	0xbf9c4d8e	-1.2211168
86	0x3f957933	1.1677612
87	0x3e42bb28	0.19016707
88	0x3fbca9ac	1.473928
89	0xc064af02	-3.5731816
90	0xc009481f	-2.145027
91	0x3f9ae8be	1.2102277
92	0x3e0cf55b	0.1376547
93	0x3e88e612	0.2673803
94	0xbfb53c56	-1.4159038
95	0xbe63e749	-0.22256197
96	0x3ed1a6f4	0.40947688
97	0x3f0b3304	0.5437472
98	0x3f2090cb	0.62720937
99	0x4017b29c	2.3702765
100	0xbded8345	-0.11597303
101	0x3f45c782	0.7725755
102	0x3f00acf8	0.5026393
103	0xbeae8b70	-0.34090757
104	0x3fe6cc60	1.803112
105	0xbf17577d	-0.5911787
106	0xc065c7c8	-3.5903187
107	0x3ecfae36	0.405626
108	0xbfe0b1fc	-1.7554317
109	0x3faf50b7	1.3696507
110	0xc089632c	-4.293356
111	0x3d6b8638	0.057501048
112	0xbf044340	-0.51665115
113	0x3eefe8e8	0.4685738
114	0x3f5ba54f	0.85799116
115	0x402f5fa4	2.7402124
116	0xbf97e783	-1.1867527
117	0xc00147a3	-2.0199974
118	0x3fe3d9a9	1.78008
119	0x40051beb	2.079829
120	0x3f80dbbf	1.0067061
121	0x3e275993	0.16342764
122	0x3f5ffbb0	0.8749342
123	0x3f0a8e72	0.54123604
124	0xc0061c2a	-2.095469
125	0x3e065ebd	0.13122077
126	0xc03f57ea	-2.9897408
127	0xbfb7586e	-1.4323862
128	0xbfe677cf	-1.8005313
129	0x3f925367	1.1431702
130	0xc010b6a5	-2.2611477
131	0x3f2e2918	0.68031454
132	0x3e96cbb3	0.29452285
133	0xc01e0c32	-2.4694943
134	0x3f9d5e42	1.229439
135	0xbd397b41	-0.04528356
136	0x3fd0cb1f	1.6311988
137	0xbfcfb8af	-1.6228236
138	0x3d76b857	0.060234394
139	0x3f76cf71	0.9641028
140	0xbfc75964	-1.5574155
141	0x3fd553f4	1.6666245
142	0x3f740290	0.9531641
143	0xbf410f1a	-0.7541367
144	0xc03862a5	-2.8810208
145	0xbf5ca324	-0.8618643
146	0xbe4d9f36	-0.20080265
147	0xbd24fe35	-0.040281493
148	0xbe5f9209	-0.21833052
149	0x3f24534d	0.64189607
150	0x3f028c71	0.50995547
151	0x3f893371	1.0718824
152	0xbea696ee	-0.32537025
153	0xc072166c	-3.7826185
154	0xbff6b5b5	-1.9274203
155	0x3fcf9965	1.6218687
156	0xbf16b546	-0.5887035
157	0x40768090	3.8515968
158	0x3f9673db	1.1754106
159	0x3dc07c7b	0.09398743
160	0xc030518b	-2.754977
161	0x3e87f767	0.2655594
162	0x3fabc7fc	1.3420405
163	0x3facbe23	1.3495525
164	0x3df17591	0.11790002
165	0x3f8647df	1.0490683
166	0xbee0dc63	-0.43918142
167	0x3efe36c3	0.49651155
168	0x3f2d582f	0.6771268
169	0x3e19b884	0.15011793
170	0xc0380720	-2.8754349
171	0xbd16f60e	-0.03685575
172	0xc0169cc6	-2.3533187
173	0x408c4177	4.3829913
174	0xbf640723	-0.8907339
175	0xbea487de	-0.32134908
176	0xc05e447f	-3.4729307
177	0x3f05a77b	0.5220868
178	0x3f3c3b35	0.7352784
179	0x40263abf	2.5973356
180	0xbec55577	-0.38541767
181	0xbf8128c4	-1.0090566
182	0x3fa0922e	1.254461
183	0x3ff6cec8	1.9281855
184	0x3e717476	0.23579583
185	0x3f699521	0.9124318
186	0x3f524044	0.8212931
187	0x3f3f51ad	0.74734
188	0xc0467f6e	-3.1015277
189	0x401db4ee	2.464168
190	0x3d66795c	0.05626808
191	0xc0286c72	-2.631619
192	0xbf98fd78	-1.1952353
193	0xbf4fbd8b	-0.81148595
194	0xc0cfaa3c	-6.4895306
195	0x3f13f5fe	0.5779723
196	0x3c8327c7	0.016010178
197	0xbf21a676	-0.63144624
198	0x3f043588	0.5164418
199	0x3eef605d	0.46753207
200	0x40010f54	2.0165606
201	0x3efac1ab	0.48975882
202	0xbe07a4f4	-0.13246518
203	0x4009c9f9	2.1529524
204	0x3ee1d27c	0.441059
205	0x3f019bdd	0.50628453
206	0xbe9cb3fb	-0.30606064
207	0x3e71ffa0	0.2363267
208	0xbf6b4b23	-0.91911525
209	0xbffc5fe7	-1.9716767
210	0xc0309c65	-2.7595456
211	0xbe732cdb	-0.2374758
212	0xbf4ff45a	-0.81232226
213	0x3fb5b12f	1.4194697
214	0xc003227c	-2.0489798
215	0x3b35dcb0	0.0027749948
216	0x3ee6dd44	0.45090687
217	0xbff51fed	-1.9150368
218	0xbf1bce86	-0.60862005
219	0x401e037e	2.4689631
220	0xbea00864	-0.31256402
221	0x3fd1bd21	1.6385843
222	0x3fc4fe52	1.5390112
223	0x3f80997b	1.0046839
224	0xbfbc5cf0	-1.4715862
225	0x3f742a7d	0.9537733
226	0xbf0782cb	-0.5293395
227	0x3f42ea34	0.76138616
228	0xbfeab592	-1.8336661
229	0x3f252fa0	0.64525795
230	0xc081b19c	-4.052931
231	0x3f113211	0.5671702
232	0x3f37d04c	0.7180221
233	0x3f51d6e2	0.8196851
234	0xc00f2f3d	-2.2372582
235	0x3f1bfbdd	0.6093119
236	0xbfd1af2e	-1.6381586
237	0x404aa3bc	3.1662436
238	0x3f81dd82	1.0145724
239	0x39516550	0.00019969535
240	0xbfa7423a	-1.3067086
241	0x3f770cd0	0.96503925
242	0xc0180c23	-2.3757408
243	0x3fd0b8f4	1.6306443
244	0xbfe3eae7	-1.7806062
245	0xbf2474d1	-0.6424075
246	0xbfb10a43	-1.3831257
247	0x40298c40	2.6491852
248	0xbf6ed5dc	-0.93295074
249	0x3fcb3b1b	1.5877413
250	0xbea63afb	-0.32466874
251	0x3f3b90ba	0.7326771
252	0xbf36e603	-0.7144472
253	0x3f7a9002	0.9787599
254	0x3f5318a6	0.82459486
255	0xc00fce93	-2.2469833

visible_bias f4 [16]
0	0x3f6dcfb6	0.92895067
1	0x3f9e5561	1.2369806
2	0x3fafa459	1.372203
3	0x3e8f426b	0.2798036
4	0x3f83244d	1.0245453
5	0x3f8d0669	1.1017581
6	0x3f39222f	0.72317785
7	0xbf234626	-0.63778913
8	0x3f883621	1.0641519
9	0x3f6a7bda	0.9159523
10	0xbee68175	-0.45020643
11	0xbf1df32d	-0.6169918
12	0x3f61fc58	0.8827567
13	0x3fc6d057	1.553233
14	0x3f868c13	1.0511497
15	0x3f8db763	1.107159
