data/ising2d/parameters/parameters_nH16_L4_T3.032.npz (npz, 1696 bytes, 3 tensors)

hidden_bias f4 [16]
0	0x40ba706a	5.8262224
1	0x4089d09f	4.3067164
2	0x4091a500	4.5513916
3	0xc042e78a	-3.045382
4	0x4065b885	3.5893872
5	0x4093530d	4.603888
6	0x40a710c0	5.2207947
7	0xc0abf56d	-5.373709
8	0xc03f1b70	-2.9860497
9	0x400f0807	2.234865
10	0x407701e5	3.8594906
11	0xc00f94f4	-2.2434664
12	0x4089123b	4.2834754
13	0xc0bf3ddc	-5.976301
14	0x40163886	2.3472
15	0x404886d5	3.1332295

weights f4 [16, 16]
0	0xbe097e19	-0.13427009
1	0xbfa30765	-1.2736632
2	0xbf3d6c19	-0.7399307
3	0x3e9964e4	0.29959786
4	0xbdf82b5d	-0.12117646
5	0xbf8c2d3a	-1.0951302
6	0xbb8491c5	-0.0040456974
7	0x3fd551ef	1.6665629
8	0x40175079	2.3642867
9	0x3e9e1571	0.30875733
10	0xbdfa7189	-0.12228686
11	0xbf8c73ad	-1.0972801
12	0x3d8382ec	0.06421456
13	0x3e832188	0.2561152
14	0x3ec98e42	0.39366347
15	0x3d4b8f75	0.04969736
16	0x3e7db7de	0.24777171
17	0xc0b9e58d	-5.8092713
18	0x3e8dddae	0.2770819
19	0x3f2eac58	0.68231726
20	0xbd88dc54	-0.06682649
21	0x3f02b284	0.51053643
22	0xbea8f260	-0.32997417
23	0x3e1850e7	0.14874612
24	0x3f51eac2	0.81998837
25	0x3d0303fb	0.031986218
26	0xbfde4238	-1.7363958
27	0x3f573bd2	0.84075654
28	0x3d316537	0.043309417
29	0xbe75a4af	-0.23988603
30	0xbe3f2d02	-0.18669513
31	0x3df1e838	0.1181187
32	0xbe1e60e6	-0.15466651
33	0xbfc2525f	-1.5181388
34	0x3dafd82c	0.085861534
35	0x3e20025d	0.15625902
36	0xbd46d4db	-0.04854284
37	0x3e04c82c	0.12966985
38	0xbfc4e278	-1.5381613
39	0x3fab21b7	1.3369664
40	0xbde63fe1	-0.11242653
41	0xbe7c0a00	-0.2461319
42	0x3e86ab93	0.26302776
43	0xbed1ca2f	-0.40974566
44	0xbcceeaf0	-0.025258511
45	0xbdaf2b4c	-0.0855318
46	0xc05ad1a5	-3.4190457
47	0xbe1b2551	-0.15150954
48	0x3e498a29	0.1968161
49	0x3c0eae97	0.008708618
50	0xbea97db6	-0.33103722
51	0xbe84790d	-0.25873604
52	0xbf1b4749	-0.6065565
53	0xbe8524eb	-0.2600473
54	0x3f0b041c	0.54303145
55	0x40d67e16	6.7028913
56	0xbed2a02f	-0.41137835
57	0x3dd415db	0.10355731
58	0x3d84b972	0.064806834
59	0xbdeebb82	-0.11656858
60	0xbd8476aa	-0.06467946
61	0x3e5e455c	0.21706146
62	0xbe04e303	-0.12977223
63	0xc01cb437	-2.4484994
64	0xbe1d969d	-0.15389486
65	0x3d2f5297	0.042803373
66	0x3ea4edaa	0.32212573
67	0x403ad8f9	2.919493
68	0x3d3cf011	0.046127383
69	0xc0d35e83	-6.605287
70	0xbe1cc96b	-0.1531121
71	0x3d149079	0.036270592
72	0x3ee61919	0.44941023
73	0xbf1ea33d	-0.6196783
74	0xbde89d08	-0.11358076
75	0x3e3f905d	0.18707414
76	0x3dc42e6d	0.095791675
77	0xbdad28fa	-0.08455081
78	0xbe150a07	-0.14554606
79	0x3e827f57	0.25487778
80	0x3e604895	0.21902688
81	0xbd23db50	-0.040004075
82	0xbe46484a	-0.19363514
83	0x3f619ab8	0.8812671
84	0x3d39be95	0.04534777
85	0xbf59a643	-0.8501932
86	0x3d9ad9c0	0.07561064
87	0x3b2c03dd	0.002624742
88	0xbec77547	-0.38956663
89	0xbec231ff	-0.3792877
90	0xc08f016e	-4.4689245
91	0xbe7f268b	-0.24917047
92	0xbe84bc3b	-0.25924858
93	0x3f6d5790	0.92711735
94	0xbe73a5c1	-0.23793699
95	0xbdff89d9	-0.12477464
96	0x3e9d7861	0.30755904
97	0x3ee1110a	0.43958312
98	0x3f0c0569	0.54695755
99	0x3db7b6a7	0.08970385
100	0xbec34f56	-0.38146466
101	0x3d9ad8c2	0.075608745
102	0x3da843dd	0.08216069
103	0xbdc76dbb	-0.09737726
104	0x3efe7c4f	0.49704215
105	0x3e462be5	0.19352682
106	0xbfc45e3e	-1.534126
107	0x3e8c7947	0.27436277
108	0xc0a0d772	-5.0262995
109	0xbcc5ab62	-0.024129573
110	0xc00b5c12	-2.1774945
111	0xbe5ef7c5	-0.21774204
112	0xbf4f52e7	-0.80985874
113	0xbd27a5b2	-0.040929504
114	0xbcf347d4	-0.029697336
115	0x3fa9f967	1.3279237
116	0xbece64ae	-0.40311188
117	0xbf484f7b	-0.7824628
118	0x3e7e5008	0.24835217
119	0xbe504103	-0.203373
120	0xbd27f575	-0.04100557
121	0x3e66f341	0.22553732
122	0x3ea41b5e	0.3205213
123	0x3e0de7c6	0.13857946
124	0xbfca7939	-1.5818244
125	0xbdd99979	-0.10624976
126	0x3e118c4e	0.14213678
127	0xc0508624	-3.2581873
128	0xbf949e92	-1.1610892
129	0xbd8b47c0	-0.068007946
130	0xbf9affb9	-1.210929
131	0x3ec11adc	0.37715805
132	0x3eafe2be	0.34352678
133	0xbf6cbaa6	-0.924723
134	0xbe4497aa	-0.1919848
135	0x3d407445	0.046985883
136	0x3e35dd62	0.17760232
137	0xc02ac71d	-2.668403
138	0x3ed04446	0.40677088
139	0x3c5ac1e3	0.01335189
140	0xbebeb844	-0.3724996
141	0x3f0551ce	0.5207795
142	0x3e867be4	0.26266396
143	0x3cf201b8	0.029541835
144	0x3e4d243d	0.20033355
145	0xbe510d32	-0.2041519
146	0x3c9cdbf8	0.019147858
147	0xbed654e2	-0.41861635
148	0x3d9a7c63	0.07543256
149	0xbe564757	-0.20925651
150	0x3e867875	0.26263776
151	0xbeb63fe0	-0.35595608
152	0xbe6db747	-0.23214446
153	0xbfd93dfd	-1.6972042
154	0xbf2d4662	-0.6768552
155	0x3ed23fea	0.41064388
156	0x3dd1dd73	0.10247316
157	0x40d8e11e	6.77748
158	0xbdab9829	-0.083786316
159	0xbed20f38	-0.41027236
160	0xbfc4abe5	-1.5364958
161	0xbe1c28fe	-0.15250012
162	0xbd8bffb0	-0.06835878
163	0xbe6178a8	-0.22018683
164	0xbeaa93d6	-0.33315915
165	0xbe214cd1	-0.1575196
166	0xbfa8aa8d	-1.3177048
167	0x3c5c2762	0.013437124
168	0xbe29742c	-0.16548222
169	0x3e3769d9	0.17911471
170	0x3ddc44c1	0.10755301
171	0xbf019310	-0.50615025
172	0xbfe4844d	-1.7852875
173	0x3fcf2551	1.6183263
174	0x3e36ee7b	0.1786441
175	0x3e98e333	0.2986084
176	0xc1007d74	-8.030628
177	0x3e13dab5	0.14438899
178	0x3eb79e95	0.35863176
179	0xbdfe5134	-0.12417832
180	0x3e9b5b20	0.3034296
181	0x3e4f5574	0.20247442
182	0x3df6d7cd	0.120528795
183	0x3b994dd3	0.004678467
184	0x3f0ec0e0	0.55763054
185	0xbef0a85b	-0.47003445
186	0xbeadd941	-0.33954814
187	0x3fcf01eb	1.617246
188	0xbdadd015	-0.08486954
189	0xbdd88bc6	-0.10573535
190	0xbcea4625	-0.0285979
191	0xbf7c9802	-0.98669446
192	0x3d6f8d7e	0.058484547
193	0x3e50ec47	0.20402633
194	0xc0c864ac	-6.262289
195	0x3eb01a7c	0.34395206
196	0xbef304e3	-0.47464666
197	0x3dec2784	0.115309745
198	0x3daaa4e7	0.08332234
199	0xbd94cd92	-0.07265772
200	0x3fe8d834	1.819098
201	0xbeb15ab9	-0.34639528
202	0x3de5ff21	0.112303026
203	0x3f446c26	0.7672752
204	0xbe861674	-0.26189005
205	0xbaf56cc2	-0.0018724429
206	0xbe8bc741	-0.27300456
207	0x3e8d825c	0.2763852
208	0x3eea773e	0.457941
209	0xbf92c795	-1.1467158
210	0xbf4a0442	-0.78912747
211	0xbdb084da	-0.086190894
212	0xc047220c	-3.111453
213	0x3d38dfa8	0.04513517
214	0x3ecaa024	0.39575303
215	0xbe6362e2	-0.2220569
216	0x3f0540ae	0.5205182
217	0xbe70e38a	-0.235243
218	0xbda4bd9d	-0.08043978
219	0x3fd824f8	1.6886282
220	0x3ecf3109	0.40467098
221	0x3fa03cd7	1.2518567
222	0xbde640bb	-0.11242815
223	0x3e86af72	0.2630573
224	0xbd9c9547	-0.0764566
225	0x3f11055f	0.5664882
226	0x3e7c828b	0.24659173
227	0x3e7c54bf	0.24641703
228	0xc0253abb	-2.5817096
229	0x3eac7e1b	0.3368996
230	0xc0fa176c	-7.815359
231	0x3ec53596	0.38517445
232	0x3ddb415a	0.10705824
233	0x3ddf3309	0.10898406
234	0xbe0cb416	-0.13740572
235	0x3f111abb	0.5668141
236	0x3d88cb78	0.066794336
237	0x3ea9ab20	0.3313837
238	0x3e0ceae5	0.1376148
239	0x3bc1fb7d	0.0059198723
240	0xbfa3d728	-1.2800035
241	0x3d0aaf84	0.03385879
242	0xbfc44c6a	-1.533582
243	0xbe8929a9	-0.26789597
244	0x3e8263d4	0.25466788
245	0xbe6b606d	-0.22986002
246	0xbfba79f7	-1.4568471
247	0x3fbb9ae8	1.4656649
248	0xbe40ead2	-0.18839577
249	0x3e889998	0.26679683
250	0xbdb4b70f	-0.08823978
251	0x3eda6c6f	0.42660853
252	0xbbd0c0b2	-0.0063706273
253	0x3d274714	0.04083927
254	0x3e013a3f	0.12619875
255	0xbd964e6a	-0.07339175

visible_bias f4 [16]
0	0xbea07681	-0.3134041
1	0x40110be6	2.2663512
2	0x40230891	2.5473979
3	0xbfd8954b	-1.6920561
4	0x3fc7258d	1.5558335
5	0x401b3963	2.4253776
6	0x4053a7eb	3.307124
7	0x401a0898	2.4067745
8	0x3ffdaf08	1.981904
9	0xbfd063cb	-1.6280454
10	0x3ff3e725	1.9054915
11	0x405a11de	3.4073405
12	0x3ff70043	1.9296955
13	0x3ec93805	0.39300552
14	0x405f9cf5	3.493955
15	0x3f9ab29d	1.2085758
