data/ising2d/parameters/parameters_nH4_L4_T3.032.npz (npz, 896 bytes, 3 tensors)

hidden_bias f4 [4]
0	0x40a00b6a	5.0013933
1	0x40a00a13	5.00123
2	0x41553abb	13.3268385
3	0xc182af30	-16.33554

weights f4 [16, 4]
0	0xbf60fec9	-0.8788877
1	0xbfaf0d09	-1.3675853
2	0xbf9788f9	-1.1838676
3	0x3f89e393	1.0772575
4	0x3ee85b13	0.45381984
5	0xbfbd0183	-1.4766086
6	0xbfe855f9	-1.8151237
7	0x3fec3184	1.8452611
8	0x405dc282	3.4649968
9	0x40674cbf	3.6140592
10	0xc130ae86	-11.042608
11	0x3f9c7937	1.2224492
12	0xbfd5751b	-1.6676363
13	0xbec0c8c6	-0.37653178
14	0xc0064e56	-2.0985312
15	0x3f0c63ed	0.54839975
16	0xbf1745f3	-0.5909111
17	0xc0280bd9	-2.6257231
18	0xbf8aa3f6	-1.0831287
19	0x3f4518c9	0.76990944
20	0x3f27bf76	0.6552652
21	0xc04bd056	-3.1845908
22	0xbfc5bd2d	-1.5448357
23	0x3f9eaa6f	1.2395762
24	0xbe9dd42f	-0.30825946
25	0xbfd4c614	-1.6622949
26	0xc00984ef	-2.1487386
27	0x3efec4d5	0.49759546
28	0xbfb2029d	-1.3907048
29	0xbfc74789	-1.5568706
30	0xbfb7e64e	-1.4367158
31	0x3ecf64a6	0.40506476
32	0xbfc04474	-1.502089
33	0xbfcd00c9	-1.6015865
34	0xbf14a8bf	-0.58069986
35	0x3f9856eb	1.1901525
36	0xbf06e859	-0.52698284
37	0xbfdff1c9	-1.7495662
38	0xbf21a3fb	-0.6314084
39	0x3ff86fd1	1.9409124
40	0xbfad0020	-1.3515663
41	0xbf608fb7	-0.8771929
42	0xbf9d9cee	-1.2313516
43	0x3f853b6e	1.0408762
44	0xc0242bfd	-2.5651848
45	0xbf2d32c1	-0.6765557
46	0xbf88bdf0	-1.0682964
47	0x3f4a2078	0.78955793
48	0xbfd9c997	-1.7014645
49	0xbf053a76	-0.5204233
50	0xbf1345be	-0.57528293
51	0x3ffcd5a2	1.9752696
52	0x403d6c3b	2.9597309
53	0x403459f5	2.8179905
54	0x405c51f0	3.442501
55	0x416ceeaa	14.808268
56	0xbfc661d4	-1.5498605
57	0x3ef8b88f	0.48578307
58	0xbfeb5cc4	-1.8387685
59	0x3feaa53b	1.8331674
60	0xc0554034	-3.3320436
61	0x3f48db92	0.7846004
62	0xbfc36f01	-1.5268251
63	0x3fa8e203	1.3193973

visible_bias f4 [16]
0	0x3f9d974b	1.2311796
1	0x3f141eee	0.57859695
2	0x3fb5537d	1.4166104
3	0x3fe981f0	1.8242779
4	0x3fe4b1a8	1.7866716
5	0x3fb6603b	1.4248117
6	0x3fe9a945	1.8254782
7	0x3fff4bfa	1.9945061
8	0x3fa1f825	1.2653853
9	0x3f0196c0	0.5062065
10	0x3f9aed9b	1.2103761
11	0x3fe07eb0	1.7538662
12	0x3ee51273	0.44740638
13	0xc140179a	-12.005762
14	0x3f0c7e37	0.5488009
15	0x3fb0a3fb	1.3800043
