data/ising2d/parameters/parameters_nH4_L4_T2.269.npz (npz, 896 bytes, 3 tensors)

hidden_bias f4 [4]
000000 24 f4 43 41 f2 df 83 41 1f b2 b7 41 5f 1a 28 c0
       12.247105 16.484348 22.961973 -2.6266096

weights f4 [16, 4]
000000 48 61 ff bf 8c a9 ca bf 38 08 c7 bf f8 dd 04 40
       -1.9951563 -1.5832992 -1.5549383 2.076048
000010 6f b3 32 bf 36 30 07 c0 c3 6b 16 c0 81 eb e3 3f
       -0.69805044 -2.1123176 -2.3503273 1.7806245
000020 75 65 b7 40 ca b2 86 40 dd a1 79 c1 fa 62 e8 3f
       5.731135 4.209325 -15.602017 1.8155205
000030 87 8c 02 c0 c2 5c 0d bf 4b 73 2f c0 10 03 fb 3f
       -2.039827 -0.5521966 -2.741412 1.961031
000040 60 bb dc bf 67 1b 29 c0 d8 8a 48 bf 4a 1c 0a 40
       -1.7244682 -2.6422975 -0.7833686 2.1579766
000050 36 d6 aa 40 04 47 18 c1 2d 2f d1 bf 13 39 ef 3f
       5.338649 -9.517338 -1.6342522 1.8689293
000060 6e aa 42 bf 40 e7 fe bf 43 5b 17 c0 bd 9e f3 3f
       -0.76041305 -1.9914322 -2.3649452 1.9032818
000070 9f 65 f8 bf f4 44 c3 bf cd 08 ca bf b4 84 0f 40
       -1.9406012 -1.5255418 -1.5783936 2.2424746
000080 d6 1a 2f c0 7a a9 08 c0 51 2f 04 bf 32 4e 0c 40
       -2.736013 -2.135344 -0.516347 2.1922727
000090 10 05 de bf 51 e9 2a c0 a6 f2 4c bf b7 8c 00 40
       -1.7345295 -2.6704905 -0.8005775 2.0085886
0000a0 d8 fa fb bf fc fb be bf 28 69 cc bf 9c 69 07 40
       -1.9685926 -1.492065 -1.5969591 2.115821
0000b0 d3 9f 36 c0 01 14 a2 bf 6c 49 99 bf a3 cc 10 40
       -2.853505 -1.2662355 -1.1975532 2.26249
0000c0 c9 f6 39 c0 22 97 a1 bf 17 bd 94 bf 6a 71 0a 40
       -2.9056876 -1.2624247 -1.1620206 2.1631722
0000d0 2a 1d fc bf bc c8 c6 bf 22 8d c8 bf a5 4b fb 3f
       -1.96964 -1.5530009 -1.566807 1.963246
0000e0 71 6b 00 c0 7e 81 0c bf 33 eb 2a c0 ec f0 02 40
       -2.0065577 -0.5488509 -2.6706054 2.0459547
0000f0 b8 7c 3c c0 0e 0f 12 bf 65 ff f7 bf c3 cb 09 40
       -2.9451122 -0.5705422 -1.9374815 2.1530616

visible_bias f4 [16]
000000 51 9f 99 3f 29 9e ae 3f 45 f0 ec 3f db 53 b4 3f
       1.2001745 1.3642017 1.8510824 1.4088091
000010 73 26 8f 3f dc eb f8 3f ab 5c 9c 3f 0a fd 7d 3f
       1.1183609 1.9446979 1.221578 0.9921423
000020 fd 68 b0 3f 0d 03 a8 3f 37 3b 8c 3f a3 8f a0 3f
       1.378204 1.3125931 1.0955571 1.2543834
000030 95 48 af 3f 15 d0 a3 3f df c1 a6 3f b3 a8 b5 3f
       1.3694025 1.2797877 1.3027915 1.4192108
