data/ising2d/parameters/parameters_nH16_L4_T1.0.npz (npz, 1689 bytes, 3 tensors)

hidden_bias f4 [16]
5.8361545 4.483188 4.315349 -3.9382582 4.288077 5.234703 3.4026647 -4.814166
-4.5889754 2.9627883 4.9936438 -4.806485 5.222283 -3.959279 4.615925 4.481552
00000000: c7c1 ba40 4776 8f40 5717 8a40 6c0c 7cc0
00000010: ed37 8940 b082 a740 42c5 5940 a60d 9ac0
00000020: e3d8 92c0 539e 3d40 eecb 9f40 bace 99c0
00000030: f11c a740 d464 7dc0 a8b5 9340 e068 8f40

weights f4 [16, 16]
-1.3748876 -0.46389747 -0.9740175 1.8408926 -0.13728982 -1.2733377 -1.3942968 1.6967
2.036605 -0.040190283 -1.1020571 0.8101215 -0.04763765 1.4843403 -1.2405443 -0.5850122
-0.3747773 -2.0182583 0.08563364 1.9555975 -1.1779852 -0.2520215 -1.7758896 0.68803227
2.129261 -0.3803314 -0.8653052 1.7089436 -1.0810121 1.21436 0.2110246 -0.9137494
0.40218586 -1.6451503 -0.21100992 1.7396129 -1.432229 0.5768167 -0.86264855 2.3309333
0.149742 -1.3689929 -1.9064243 1.6446496 -0.45476773 1.448269 -1.9188782 -0.5333505
-0.84845203 -0.7451911 -1.8254069 1.3589377 -0.6326514 -1.9348643 -0.5108522 2.057709
1.7014974 0.4449922 0.8063022 1.6802398 -1.195409 1.3859042 -0.785823 -1.5380442
-0.124721 -1.6072145 -0.26835924 2.5649726 -1.254736 -1.2169589 0.42711484 0.8969117
0.84611946 -1.6528654 -0.79550177 1.8041829 -0.2386361 1.2796324 -1.5924761 -0.6070651
-0.66380924 -0.5288626 0.29305705 1.5579515 -0.38412932 -1.6870838 -0.2681582 1.8771123
1.4109066 -1.2575796 -1.7908218 1.1291945 -0.61093307 2.3765376 -0.90673864 -0.76450187
-0.058939386 0.44351658 -1.8772293 1.3706473 0.09039228 0.2878793 0.16829881 1.0544904
2.1489058 -1.680967 -1.8767148 1.0205859 -1.5249535 2.2199004 -1.0657138 -1.3209094
-1.0130198 -0.035457984 -0.11180342 0.990388 -1.5010487 -1.845133 -0.06526797 1.9588645
2.094662 -0.09586427 -0.35192218 1.7539824 -1.6367773 0.69875765 -1.4325726 -0.64954066
-1.4191059 -1.7966952 -0.854381 1.5466309 0.6111273 -0.9477238 -1.1601828 -0.06745257
2.3937252 -1.7576518 -0.77528137 1.1910814 -1.6988631 2.2463467 0.92121524 -0.16898242
-1.9913714 -1.4718375 -0.42778158 0.5034328 -0.8444433 -1.4668787 0.21460642 1.7531251
0.73532695 -1.8571613 -0.08185257 2.171643 -0.15195556 2.3837025 -0.47089133 -0.6700584
-1.7800125 -0.6367373 0.01850715 2.0524137 0.03567142 -0.12612623 -1.076536 1.0019993
2.046515 0.0024779097 -0.81021136 0.70104563 -1.5119461 2.0988688 -1.8600409 -0.53044283
-1.0435736 -0.0003767581 -0.13643092 1.8528773 -0.54504466 -0.7780614 -0.09570931 1.7829113
1.2820807 -2.0138423 -1.1369536 1.8187551 -0.87453747 0.97552466 -0.40304342 -1.7282115
-1.36112 -0.049682606 -1.8366476 0.4924578 -0.54454994 -1.6436324 -0.08338538 1.9222975
2.076648 0.09380297 -0.25155663 1.8977515 0.12667654 1.440384 -2.0300806 -0.8504448
-1.3446711 -1.2476814 -1.9207897 2.036722 -0.81097406 -0.3450385 -0.36442736 1.1672062
1.3513198 -1.1180019 -0.8395483 2.732265 -1.1454786 0.34444538 0.20490153 0.1312818
-0.9240018 -0.3217536 -1.0482882 0.6228173 -1.5050231 -0.81482846 -1.7028921 1.7338587
1.9593347 0.38174054 -1.0405563 0.6808499 -0.99132735 2.277369 0.32547605 -0.8854354
-1.8719428 -1.7364537 -1.4630398 1.8720208 -1.4826182 -1.0353187 -1.4603668 1.9560002
0.2997848 0.6291845 -1.0146568 2.2504835 -0.2520806 0.49210888 -0.3206811 -0.0288883
00000000: 51fc afbf f883 edbe 3659 79bf 5ea2 eb3f
00000010: b495 0cbe bbfc a2bf 5178 b2bf 772d d93f
00000020: bc57 0240 919e 24bd 3510 8dbf 1f64 4f3f
00000030: b21f 43bd ddfe bd3f 28ca 9ebf 5cc3 15bf
00000040: cfe2 bfbe 252b 01c0 b160 af3d 0551 fa3f
00000050: 38c8 96bf f608 81be 5a50 e3bf e222 303f
00000060: d045 0840 ccba c2be a484 5dbf aabe da3f
00000070: 9b5e 8abf 2670 9b3f d516 583e 7beb 69bf
00000080: 4eeb cd3e 4994 d2bf fc12 58be a3ab de3f
00000090: 4853 b7bf 42aa 133f 89d6 5cbf 032e 1540
000000a0: f855 193e 293b afbf b605 f4bf e183 d23f
000000b0: 51d7 e8be e160 b93f cd9d f5bf a989 08bf
000000c0: 2734 59bf d8c4 3ebf efa6 e9bf acf1 ad3f
000000d0: 71f5 21bf a2a9 f7bf 36c7 02bf 81b1 0340
000000e0: abca d93f 05d6 e33e d269 4e3f 1912 d73f
000000f0: 2a03 99bf 4f65 b13f b22b 49bf a2de c4bf
00000100: b96d ffbd 34b9 cdbf 6266 89be 8328 2440
00000110: 309b a0bf 4fc5 9bbf ccae da3e 019c 653f
00000120: 499b 583f 1891 d3bf 01a6 4bbf 77ef e63f
00000130: 065d 74be ffca a33f 42d6 cbbf 9e68 1bbf
00000140: 67ef 29bf 8a63 07bf 930b 963e f46a c73f
00000150: 99ac c4be 5df2 d7bf 084c 89be 3745 f03f
00000160: 9698 b43f 5ef8 a0bf a639 e5bf 7289 903f
00000170: 1c66 1cbf 3119 1840 0620 68bf 65b6 43bf
00000180: 6d6a 71bd 9b14 e33e 0d49 f0bf 5f71 af3f
00000190: 961f b93d ea64 933e 8656 2c3e 8bf9 863f
000001a0: ac87 0940 ed29 d7bf 3138 f0bf 8fa2 823f
000001b0: ad31 c3bf d912 0e40 4f69 88bf 8f13 a9bf
000001c0: a2aa 81bf 643c 11bd 31f9 e4bd 118a 7d3f
000001d0: 5d22 c0bf 512d ecbf 37ab 85bd 12bc fa3f
000001e0: f10e 0640 7d54 c4bd 252f b4be 7f82 e03f
000001f0: eb81 d1bf c8e1 323f 8a5e b7bf 4c48 26bf
00000200: 43a5 b5bf 1cfa e5bf b7b8 5abf 00f8 c53f
00000210: d772 1c3f 079e 72bf df80 94bf 9324 8abd
00000220: cb32 1940 bcfa e0bf d778 46bf 5b75 983f
00000230: 5974 d9bf 25c4 0f40 c3d4 6b3f ba09 2dbe
00000240: 42e5 febf 2c65 bcbf 3006 dbbe f9e0 003f
00000250: 702d 58bf aec2 bbbf c9c1 5b3e 6766 e03f
00000260: 633e 3c3f 76b7 edbf 52a2 a7bd 33fc 0a40
00000270: 3d9a 1bbe 958e 1840 ab18 f1be f388 2bbf
00000280: 73d7 e3bf 3701 23bf 4e9c 973c bf5a 0340
00000290: 321c 123d 3c27 01be efcb 89bf 8341 803f
000002a0: 1afa 0240 6d64 223b 036a 4fbf ba77 333f
000002b0: 7387 c1bf de53 0640 d215 eebf 1acb 07bf
000002c0: d293 85bf 9e87 c5b9 8cb4 0bbe 152b ed3f
000002d0: 0c88 0bbf 082f 47bf 3e03 c4bd 7036 e43f
000002e0: 381b a43f cbe2 00c0 b287 91bf f8cc e83f
000002f0: b0e1 5fbf fcbb 793f b55b cebe 0936 ddbf
00000300: 2e39 aebf fd7f 4bbd 4517 ebbf 6e23 fc3e
00000310: a067 0bbf 8c62 d2bf f4c5 aabd d80d f63f
00000320: cde7 0440 c61b c03d 08cc 80be 85e9 f23f
00000330: 7fb7 013e 815e b83f d7ec 01c0 c0b6 59bf
00000340: 2f1e acbf 06b4 9fbf 70dc f5bf a759 0240
00000350: ff9b 4fbf e3a8 b0be 3996 babe 0367 953f
00000360: 0cf8 ac3f b01a 8fbf a3ec 56bf 6edd 2e40
00000370: 0b9f 92bf 255b b03e b5d1 513e bc6e 063e
00000380: 628b 6cbf e3bc a4be 4f2e 86bf f470 1f3f
00000390: 99a4 c0bf 9998 50bf 5ef8 d9bf 15ef dd3f
000003a0: 7bcb fa3f 7f73 c33e f330 85bf 2e4c 2e3f
000003b0: a1c7 7dbf 6ac0 1140 cca4 a63e e5ab 62bf
000003c0: d29b efbf 1d44 debf e344 bbbf 619e ef3f
000003d0: 6fc6 bdbf 5385 84bf 4ded babf 375e fa3f
000003e0: 657d 993e 3c12 213f 46e0 81bf ec07 1040
000003f0: b510 81be b2f5 fb3e 5030 a4be 28a7 ecbc

visible_bias f4 [16]
-0.10160053 0.120000914 0.38520536 0.11140077 0.39300552 -0.014999948 0.1544015 0.33920458
0.421606 0.26860338 -0.29220375 0.2922038 -0.11960089 0.46300668 0.4530065 1.065152
00000000: f013 d0bd 0ac3 f53d a339 c53e 1626 e43d
00000010: 0538 c93e 58c2 75bc 6d1b 1e3e 39ac ad3e
00000020: bedc d73e 6286 893e bb9b 95be bd9b 953e
00000030: 50f1 f4bd 360f ed3e 78f0 e73e e756 883f
