data/ising2d/parameters/parameters_nH16_L4_T2.524.npz (npz, 1705 bytes, 3 tensors)

hidden_bias f4 [16]
0	0x40c068d9	6.012799
1	0x409a75d6	4.8268843
2	0x40bc00f4	5.8751163
3	0xc03a9a60	-2.9156723
4	0x40a3e8d3	5.122171
5	0x40bab6d3	5.8348174
6	0x405895b9	3.3841383
7	0xc0c20d1d	-6.0641007
8	0xc09427c9	-4.6298566
9	0x4056b68c	3.3548918
10	0x407fd723	3.997506
11	0xc070323a	-3.7530656
12	0x4092b102	4.5841074
13	0xc0bae5e6	-5.840564
14	0x4032d736	2.7943854
15	0x40650272	3.5782743

weights f4 [16, 16]
0	0x3e31f1fd	0.17377467
1	0xbf488b69	-0.78337723
2	0xbf2f5668	-0.6849122
3	0x3fac5095	1.3462092
4	0xbc97e7e3	-0.01854319
5	0xbf8ead49	-1.1146632
6	0x3f5fe88e	0.87464225
7	0x3f8aeda2	1.085377
8	0x3fef5ab2	1.8699553
9	0x3e4ffc83	0.2031117
10	0x3e9818d3	0.2970644
11	0xbd465d4c	-0.04842882
12	0xbce057bc	-0.027385585
13	0x3e8c0385	0.27346435
14	0xbfdc335f	-1.7203177
15	0x3e7d080a	0.24710098
16	0x3e650137	0.22363745
17	0xc0cf843d	-6.4848924
18	0x3e9b5cf1	0.30344346
19	0x403eb605	2.9798596
20	0x3f57e9df	0.84341234
21	0x3ee2dad9	0.44307593
22	0xbfbbde70	-1.4677258
23	0x3d3efbb9	0.04662678
24	0x3faf1945	1.3679587
25	0xbe678ded	-0.22612734
26	0xbed224aa	-0.41043597
27	0x3eb4f3b3	0.35342178
28	0x3ccd6191	0.025070937
29	0xbe92bcc5	-0.28659645
30	0xbebf4a62	-0.37361437
31	0x3e7439b3	0.23850136
32	0x3e615659	0.22005595
33	0xbe16d9a1	-0.14731456
34	0x3ec7ed16	0.3904807
35	0x3f008d75	0.50215846
36	0xbf556693	-0.8335964
37	0x3dcac3a8	0.099006
38	0xc0892277	-4.285457
39	0x3f608ffe	0.87719715
40	0x3d39de1e	0.045377843
41	0x3d930fc6	0.07180743
42	0xbe441a51	-0.19150664
43	0x3e71c742	0.23611167
44	0xbfa0b009	-1.2553722
45	0xbd4b3761	-0.04961336
46	0xbfdf1107	-1.7427071
47	0xbd6eb870	-0.058281362
48	0x3f37392f	0.7157163
49	0xbd8af1e2	-0.06784417
50	0x3ec17b4b	0.37789378
51	0xbf12161a	-0.57064974
52	0x3ec76191	0.38941625
53	0x3e054c63	0.1301742
54	0xbdfe4e16	-0.124172375
55	0x40bb325f	5.849899
56	0xbda3b7dd	-0.079940535
57	0x3e0237a9	0.12716545
58	0xbe36b25a	-0.17841473
59	0x3d87c784	0.066298515
60	0x3eaf02a2	0.34181696
61	0x3ea06bdd	0.31332293
62	0xc0496196	-3.1465812
63	0xc014176f	-2.3139303
64	0x3ec7c369	0.39016274
65	0x3f36c2eb	0.7139117
66	0x3d84b402	0.06479646
67	0x3fc6bb2b	1.5525869
68	0xbde96698	-0.11396521
69	0xc0fd8f73	-7.923761
70	0x3e41260d	0.18862171
71	0x3e1f3293	0.15546636
72	0x3f882796	1.0637081
73	0x3e0a9e6a	0.13536993
74	0xbf66af21	-0.90110976
75	0x3e1bca83	0.15213971
76	0xbed9f056	-0.42566174
77	0x3e2c1502	0.16804889
78	0xbe5beb79	-0.21476544
79	0x3d610cc1	0.054943804
80	0x3d922530	0.07135999
81	0xbfc837a1	-1.5641977
82	0x3e846711	0.25859883
83	0xbcf47ca5	-0.029844591
84	0x3d740cf1	0.059582654
85	0xbf965abb	-1.1746439
86	0x3e1d9253	0.1538785
87	0x3b77d72c	0.0037817461
88	0x3e5e1b9b	0.21690218
89	0xbf95e5cf	-1.1710757
90	0xc06f6a5e	-3.7408671
91	0x3cb78d4f	0.022406248
92	0xbc410213	-0.01178028
93	0x3f1fa6f7	0.62364143
94	0xbdd28304	-0.102788955
95	0x3ef6fd30	0.48240042
96	0xbe95c4cb	-0.29251704
97	0x3e87a4fc	0.2649306
98	0xbe24bdab	-0.16087978
99	0x3e703cf9	0.23460759
100	0x3d9b62fc	0.07587239
101	0x3f2f09da	0.6837441
102	0xbf3036a2	-0.68833363
103	0x3e93217b	0.2873648
104	0x3db0f3fd	0.08640287
105	0x3c4cbd06	0.012496239
106	0xc01cbe0c	-2.4490995
107	0x3e9a3b34	0.30123293
108	0xc0ba66e6	-5.825061
109	0x3e323418	0.17402685
110	0x3d7fd115	0.062455256
111	0xbe122bff	-0.14274596
112	0xbf33405e	-0.7002009
113	0x3e824f9b	0.2545136
114	0x3e713fdc	0.23559517
115	0x3f37faae	0.7186688
116	0x3dc0bb0b	0.094106756
117	0xbfbe2f2d	-1.4858147
118	0x3ea02552	0.31278473
119	0xbd6bd8fa	-0.05757997
120	0x3e8af705	0.27141586
121	0x3d877db5	0.066157736
122	0xbf0bbc82	-0.54584515
123	0x3eda95de	0.42692465
124	0xbfd3eca5	-1.6556593
125	0xbeba99ec	-0.36445558
126	0x3da3b94d	0.07994328
127	0xc09568ba	-4.669034
128	0xbfdac928	-1.7092638
129	0xbc56122c	-0.013065856
130	0xbfd8a29d	-1.6924626
131	0xbda97dd7	-0.08275955
132	0x3c4d2ebc	0.012523349
133	0xbfe054c2	-1.7525866
134	0xbdc18e7b	-0.09451004
135	0xbd0d50fb	-0.034501057
136	0xbcd3d786	-0.025859606
137	0xbfbde7b6	-1.4836338
138	0x3e9d1b7d	0.30685034
139	0xbe320df6	-0.17388138
140	0xbd0a3adc	-0.03374754
141	0x3ee39dae	0.44456238
142	0xbd8135c6	-0.063090846
143	0x3d02a8c5	0.031899232
144	0xbd320875	-0.043465097
145	0x3e23419c	0.15942997
146	0xbe22d20c	-0.15900439
147	0x3ea27138	0.31727004
148	0x3ec414b6	0.3829705
149	0x3e36704a	0.17816272
150	0xbe724ec7	-0.23662864
151	0xbe0073ca	-0.1254417
152	0xbb252f0e	-0.0025205049
153	0xc0a4aff6	-5.1464796
154	0xbece1154	-0.40247595
155	0x3f7078d7	0.93934387
156	0x3eb76c5e	0.35824865
157	0x40c88aee	6.266959
158	0x3e9052e9	0.28188255
159	0xbeb60f1c	-0.35558403
160	0xbfd76165	-1.6826597
161	0xbee6a03d	-0.45044127
162	0x3d76e2a0	0.06027472
163	0xbf32f1d4	-0.6990025
164	0xbfd84999	-1.689746
165	0xbd8a999e	-0.067675814
166	0x3e9004a5	0.28128543
167	0xbe20395e	-0.15646884
168	0x3d7740d6	0.060364567
169	0x3f694d15	0.9113324
170	0x3d5b3896	0.05352076
171	0xbe9113ea	-0.28335506
172	0xbff19836	-1.8874576
173	0x4036f43b	2.8586566
174	0xbe9f9410	-0.3116765
175	0x3e03a06e	0.12854168
176	0xc10b8f04	-8.722416
177	0xbbb61886	-0.0055571226
178	0x3e2391c9	0.15973581
179	0x3e847778	0.25872397
180	0x3dc15aa5	0.09441117
181	0xbe8e49a9	-0.27790573
182	0xbe9b4e05	-0.30332962
183	0x3ece7d65	0.40330043
184	0x3ed5ce3d	0.4175891
185	0x3ed025dd	0.40653887
186	0xbe1fe5dd	-0.1561503
187	0x3f1aecaa	0.6051737
188	0x3f04c09a	0.51856387
189	0x3e98ad47	0.298197
190	0xbddab889	-0.106797285
191	0xbfa46322	-1.2842753
192	0x3e0230a5	0.12713869
193	0x3ddf12d4	0.10892263
194	0xc1039dca	-8.226023
195	0xbfa7550d	-1.307283
196	0x3eb0ecde	0.34555715
197	0x3ee2a5a9	0.44267014
198	0xbf0be70c	-0.54649425
199	0x3ec0cb9a	0.37655336
200	0x4085d2b5	4.181971
201	0x3cab31cb	0.020897767
202	0xbeb2e05d	-0.349368
203	0x3f55ccfc	0.83515906
204	0x3ebaca48	0.36482453
205	0xbe612c16	-0.21989474
206	0x3d48c6e4	0.049017802
207	0xbe4e9d47	-0.20177184
208	0x3eb41bff	0.3517761
209	0xbfd96272	-1.6983168
210	0xbfab6244	-1.3389363
211	0xbe152a0d	-0.14566822
212	0xbf9f9742	-1.2468035
213	0xbe00cd05	-0.12578209
214	0x3e13482c	0.14383
215	0x3ca70841	0.020389678
216	0xbe5f29ea	-0.21793333
217	0xbf3bed5b	-0.7340905
218	0x3ebdce43	0.37071428
219	0x405e1f01	3.4706423
220	0x3d8f2c00	0.06990814
221	0x3f2039e8	0.6258836
222	0x3d8ce3b1	0.06879366
223	0x3ea860da	0.32886392
224	0x3cff533d	0.03116762
225	0xbf0c6e60	-0.5485592
226	0xbe537b5f	-0.20652531
227	0x3ea84555	0.32865396
228	0xc0e7cacd	-7.243506
229	0x3e67f459	0.22651805
230	0xbfa0dc73	-1.2567276
231	0x3f19c747	0.600697
232	0x3d9fc4c0	0.07801199
233	0x3eedeb55	0.46468607
234	0xbd06576a	-0.03279821
235	0x3f4afbb1	0.792903
236	0x3d695da6	0.056974076
237	0x3f340119	0.70314175
238	0x3eb407d7	0.3516223
239	0xbe06b532	-0.13155058
240	0xbfcf48bc	-1.6194072
241	0xbd678b31	-0.056529228
242	0xbfea0130	-1.8281612
243	0x3da35f86	0.07977204
244	0xbfd79c05	-1.6844488
245	0xbc63b387	-0.013897783
246	0x3d36fb3b	0.044673186
247	0x4028f4a3	2.6399314
248	0xbe2426f4	-0.16030484
249	0xbe69d4bc	-0.22835058
250	0x3cd9ed93	0.026602542
251	0xbe57bc42	-0.21067908
252	0x3c03dddb	0.0080485
253	0xbe896ee0	-0.26842403
254	0x3f73fc3f	0.9530677
255	0xbc80e33d	-0.015733356

visible_bias f4 [16]
0	0xbf75e65f	-0.96054643
1	0x3f857239	1.0425483
2	0x40397d07	2.898256
3	0xbf867ef7	-1.0507497
4	0x4022a63f	2.5413969
5	0x4037f3bf	2.874252
6	0x4064b210	3.573368
7	0x4054df44	3.326127
8	0x404cf5de	3.2025065
9	0xbf8f3a1d	-1.118961
10	0x3fb72b6d	1.4310127
11	0x40673afa	3.6129746
12	0x3fda601f	1.7060584
13	0xbcfdf398	-0.030999944
14	0x4033eb62	2.8112416
15	0x3f968633	1.1759704
